CNN_best.pth (torch, 102887 bytes, 4 tensors)

conv1.weight f4 [128, 64, 3]
00000000: 93af 5ebd 0c5d e13c b91d 673d 2a95 3cbd
00000010: b456 99bc 4d20 703d 5004 2f3d bc95 273d
00000020: 9621 a5bd bf65 6d3d 8f66 c73c 7751 683d
00000030: 8c2c b43d ef75 0cbd dd75 0a3c d33b 6dbc
00000040: d701 09bd f296 c13c 0588 8cbb 12d9 43bd
00000050: 2c71 6b3d a085 56bc eb4e 5ebc b655 6cbd
00000060: d370 00bd a477 d73c e69a 14bd a725 463c
00000070: d401 763d cc72 f63c 366a 59bd dd97 8abb
00000080: f178 99bc 2a7b 56bc 4fdc 233d d800 243b
00000090: d186 923c 5886 9b3d 504b 7dbd ffcb 11bc
000000a0: e647 91bc b01a 2dbd 1bb7 1a3c d091 803a
000000b0: d8ac 583d 4cf7 4e3d 36c0 7fbc 812b 833d
000000c0: e041 17bd c0ab 3ebc 5d28 2b3c 8e7a a83c
000000d0: 7b8b 313c 21a4 a5bc 7637 4bbd 5144 243d
000000e0: 782b 86bd 9545 47bc 1f78 fabc 76da 89bd
000000f0: 2e8d 47bd 0237 143d c164 5a3c b757 223d
00000100: 8df1 903a a950 2bbd b655 923d a17b 4fbd
00000110: 7f0b 493d 8ad0 16bd d529 19bd bca9 583d
00000120: b75b 0f3d 81da 8f3c 2a6a 0e3d 9590 14bd
00000130: d256 0ebd 5a48 0f3b d1e3 ff3c 8e73 9cbd
00000140: 6932 483d d817 3cbd e14d 79bd 618d 04bd
00000150: 12bc 49bd 1fce 9abd 7c0b b33c ef95 66bd
00000160: 2ae8 cb3c 9933 b9bc 04e2 3abd 9b5d 033c
00000170: 0938 a03c 6f9b 583d c800 a83d 4dfe 0f3d
00000180: 6593 8a3c 50ce 48bc f2e7 173d 9bed e8bc
00000190: 638a 833d bd97 32bd 56d3 f6bc 5b17 643d
000001a0: 295f df3c 2b4e cf3c b399 72bd dcbc 47bd
000001b0: f06a 05bc 2a84 a33c c658 8a3c 1e29 813c
000001c0: df0c aabb 7412 f63c b037 d13c 4580 36bc
000001d0: 4412 51bd 57fb a2bc d74f 59bd 7904 a13c
000001e0: 7f87 593d 2e1f 96bc 03fe 713d a59d 7abd
000001f0: 21de 09bd dcf6 6d3c 1dcd 52bd 1c8e 623d
00000200: 78f0 1bbd 3809 fabc d529 e23c c580 193d
00000210: e967 01bd b49c 903d ee5d 89bc 2bc4 22bd
00000220: 97a9 96bc c69c 113d 8a1c 94bc 67d6 9dbc
00000230: 0ecd 523d 88a1 5fbd f97e 6dbc 0d1b 8a3b
00000240: 9b30 503d 7c89 4ebd 57ce ae3c 1ca0 3dbd
00000250: 35ee 1b3d 61a0 a2bc 8030 80b8 79d3 733d
00000260: ecf1 893c e73a 24bc dcb0 88bd 8361 cb3c
00000270: b432 513d ccf8 763c ec91 37bd 3b36 a4bd
00000280: 2a6b ebbc 44fb 093d d08d b53c 9fd2 653c
00000290: b36c ff3c dffb 2b3d d7fb 1c3d d4f4 9fbb
000002a0: e593 78bc 3f76 073c aee6 71bd 51f5 f43a
000002b0: 1269 0a3d cecb 043d 34d2 10bd df6e d2bc
000002c0: 8939 ebbc f88d 073d 9adb 31bd 001a 193c
000002d0: 2829 7cbc f1de 843d 3359 4d3c 6438 0c3d
000002e0: 61c2 8bbd ecab 953d 5230 d83c f212 883c
000002f0: 39eb 8bbd 781d 3ebd 376a fcba 024f 78bd
00000300: fae7 80bd eee3 fdbb 878e fd3c 95a5 333c
00000310: 3e8c 8c3b 3c64 33bd 2dd2 5e3d 68d3 473d
00000320: 74b0 9bbc 2f49 d23c e2ae 7b3d d179 b83c
00000330: fbe7 9fbd a6be a1bb 1849 fe3b 80b5 4b3d
00000340: 7e46 febc 255b 203d 4b4b 723d c1db 06bd
00000350: 56a1 2d3d 6c5a 453d 97a2 453d 363f 1ebd
00000360: 720f 103c b523 bb3b 1f9e d23c 6724 303d
00000370: 6616 4d3d 229b 633d 0767 babc db61 35bd
00000380: 2af6 193d c34c fbbc 2977 973a 94c0 2a3d
00000390: c47e dfbc b3e0 73bd 33a0 043d cb49 633d
000003a0: 6bb5 8b3b 55ba 43bd 375e 0f3d 7ca7 7e3c
000003b0: a725 043d 8d81 9ebc ae50 10bd 30ed 57bc
000003c0: caaf 933c 7ae8 2dbd bef7 8abd efff 6ebd
000003d0: 9c53 223a e1d3 0dbd e0b6 f3bc 2b1d 493d
000003e0: 12bd 44bc 19c8 f23a 5cc0 19bd 1e5f 56bc
000003f0: 7edc 2a3d 5f07 33bd 3e8e 1cbd 230f 1bbc
-0.05436666 0.027510189 0.05642483 -0.04604069 -0.018718101 0.058624554 0.042728722 0.040914282
-0.08063047 0.05795836 0.024340896 0.056718316 0.08797559 -0.034292158 0.008450952 -0.014479595
-0.03344902 0.023631547 -0.0042886757 -0.047814436 0.057480976 -0.013093382 -0.01356862 -0.057698928
-0.031357598 0.026302166 -0.036280535 0.012093938 0.060060337 0.030084036 -0.053079806 -0.0042295293
-0.018734427 -0.013090888 0.040005025 0.0025024917 0.017886551 0.075939834 -0.0618394 -0.008898734
-0.01773448 -0.04226178 0.00944307 0.000980908 0.05289921 0.05052881 -0.0156097915 0.06404782
-0.036928058 -0.011637628 0.010446635 0.020566251 0.010836477 -0.020219864 -0.04961344 0.040104214
-0.0655126 -0.012162586 -0.030574856 -0.06731121 -0.048718624 0.036185272 0.013329686 0.039634433
0.0011058316 -0.04182497 0.07145254 -0.05065501 0.04908323 -0.036819972 -0.03739341 0.052896246
0.034999575 0.017560245 0.034769215 -0.036270697 -0.034750767 0.0021863193 0.031236561 -0.07639228
0.0488762 -0.045921177 -0.060865287 -0.032361392 -0.049251623 -0.07558846 0.021856062 -0.05629533
0.024890978 -0.022607611 -0.0456257 0.008017923 0.01955797 0.052882608 0.08203274 0.03515463
0.016915986 -0.01225622 0.037086435 -0.028433612 0.064228795 -0.04360174 -0.03013007 0.055686336
0.027267056 0.025305828 -0.05922861 -0.048764095 -0.008143172 0.019960482 0.016888034 0.015766677
-0.0051895226 0.030038096 0.02553925 -0.01113898 -0.05104281 -0.019895239 -0.053054657 0.019655453
0.053107735 -0.018325415 0.059080135 -0.061185498 -0.033659104 0.014524188 -0.051465143 0.055311307
-0.038071126 -0.030521974 0.027607838 0.03747632 -0.031593237 0.07061139 -0.016768422 -0.03973786
-0.018391414 0.0355499 -0.018080015 -0.019267274 0.051465087 -0.054597408 -0.014495605 0.0042146505
0.050827604 -0.050424084 0.021338625 -0.04629527 0.03806897 -0.019851865 -6.1125495e-05 0.059527848
0.01683899 -0.010023809 -0.06674358 0.02482677 0.051073745 0.015073966 -0.044816896 -0.08018156
-0.028737623 0.03368689 0.022162348 0.014027267 0.031179762 0.04198825 0.03832611 -0.0048814807
-0.01517198 0.008267938 -0.059057884 0.0018688833 0.03379161 0.032420926 -0.035356715 -0.025687633
-0.028713958 0.033094376 -0.04342232 0.009344578 -0.015390672 0.06487835 0.012533474 0.034233466
-0.06824184 0.07308182 0.026390228 0.016610596 -0.068319745 -0.046414822 -0.0019257729 -0.060622223
-0.06294246 -0.0077481186 0.030951751 0.010964771 0.004289179 -0.043796763 0.054399658 0.048785597
-0.019005038 0.025669662 0.061446078 0.022519024 -0.07807919 -0.004936057 0.0077601783 0.04973364
-0.031039473 0.039149422 0.059153836 -0.032924417 0.04239019 0.048181936 0.04825076 -0.0386345
0.008792745 0.0057110437 0.025710164 0.043003466 0.05007019 0.055567868 -0.022754205 -0.044282775
0.037588276 -0.030676251 0.0011555898 0.041687563 -0.027282126 -0.05954046 0.03237934 0.055490296
0.00426357 -0.047785122 0.03500196 0.015542861 0.03226247 -0.019348884 -0.035233192 -0.0131791085
0.018028159 -0.042458035 -0.06785534 -0.058349546 0.00061922683 -0.03462589 -0.029750288 0.049100082
-0.0120079685 0.0018522769 -0.037536964 -0.013084201 0.041714184 -0.0437082 -0.03822159 -0.009464058

conv1.bias f4 [128]
00000000: f646 b7bd ffe6 70bc ba34 d8bd 54b2 02be
00000010: 9549 43bd e82a 23be d15e 36be 8c40 39be
00000020: 6902 f8bd 4df0 cf3d bf68 9dbd b79f 993d
00000030: b4dd 34be d05b 023e b414 d3bd 8b5a 083d
00000040: f3e6 26be 11a0 39bd 2ec6 41bd eb37 54bd
00000050: a6b8 343d 84e1 003c f4ab 7dbe c78c 3ebe
00000060: 2707 31bc dba6 0b3e 5f17 70bd 0c7a 80bc
00000070: 9eca bebb 4ce7 a23c d1a2 2dbd 697a 46be
00000080: d75d 01bd eeb3 8ebd 6397 e3bd 216f d6bd
00000090: f27b a9bd f627 a03d d84c 503d 0eef 463d
000000a0: c503 7c3d e660 2f3c 04f3 30bc f3fe 7e3d
000000b0: 9441 bcba d143 003c 99c9 1b3e fa9f 68bd
000000c0: e042 56bd 8b90 813d 79dc 003d 4fce 01be
000000d0: 9632 9bbd 3257 24be 8b31 c6bd 886d 14be
000000e0: 8b80 aebd 2e19 07be e00e 81bd 31fe 6ebd
000000f0: fc7a 1b3d e50a e33c e114 08be f9fd a2bd
00000100: cfb7 d5bd 0857 f0bd c452 76bd 4811 1a3a
00000110: 6980 c93d b195 d93d b988 b3bd 2cec 19be
00000120: 3ec8 993d df7c ac3c e8af afbc fa71 243e
00000130: b9f7 30bd 3663 b4bd e9ab c2bd f72d 293a
00000140: c6de 993b e2d5 5fbd 4d64 553b b92c 823d
00000150: ccdb da3d 96d7 6dbd 48d0 843d b7cc 0bbc
00000160: 7dde 1dbe 09d9 0ebd 8b81 643d 157a 2dbe
00000170: f762 dd3c 6b17 623c b52e 84bd 36ab a2bd
00000180: db5f 29bd 749e c1bc 50ea 03bd 6cd8 873c
00000190: 65d0 85bd 9165 7c3d bcda 95bc d385 d53c
000001a0: 2901 4dbd 67b7 42bc b055 fabd feda 963d
000001b0: dc5e fe3d 5545 b6bd d5c5 803d c819 a13d
000001c0: e6b6 db3d 8256 afbd 2538 a7bd 8540 ec3d
000001d0: dee3 93bd 087b 883d 58c7 403d f592 cf3d
000001e0: 42f4 063c e6e3 1c3c 77e8 b7bd 221d 17be
000001f0: 8a4d 873c 34dc 7abc b658 5d3d e2e8 d0bd
-0.089490816 -0.014703511 -0.10556932 -0.1276334 -0.047677595 -0.15934336 -0.17809607 -0.18091029
-0.12109835 0.101532556 -0.07685994 0.07501166 -0.17662698 0.12730336 -0.10306683 0.033289474
-0.16299038 -0.045318667 -0.04730814 -0.05181114 0.044121407 0.007866267 -0.24772626 -0.1860839
-0.010804928 0.13637869 -0.05861604 -0.015683196 -0.0058224937 0.019885682 -0.042391602 -0.19382633
-0.031583633 -0.069679126 -0.11112859 -0.10470415 -0.08275594 0.07820122 0.050854534 0.048567824
0.061527032 0.010704255 -0.010800127 0.062254857 -0.0014362806 0.007828669 0.15213622 -0.05679319
-0.05230987 0.063263975 0.03146026 -0.12676357 -0.07578008 -0.16048887 -0.09677418 -0.14494908
-0.085206114 -0.13193199 -0.06301665 -0.058347885 0.037959084 0.027715156 -0.13289215 -0.07958598
-0.10435449 -0.1173535 -0.060137525 0.0005877209 0.098389454 0.106242545 -0.08766312 -0.15031499
0.07508896 0.021055637 -0.021446183 0.16059104 -0.043204997 -0.088079855 -0.095054455 0.00064536877
0.004695746 -0.054647334 0.0032561005 0.063561864 0.10686454 -0.058066927 0.06485039 -0.008532695
-0.15416904 -0.03487495 0.055787604 -0.16941102 0.02702473 0.013799529 -0.06454221 -0.07942812
-0.04135118 -0.023635127 -0.03220588 0.01658269 -0.06533889 0.0616203 -0.018292777 0.026064789
-0.050049935 -0.011884547 -0.12223375 0.07365988 0.12420437 -0.08899943 0.062877335 0.078662455
0.107282445 -0.08561422 -0.081650056 0.115357436 -0.072211966 0.06664091 0.04706511 0.10135452
0.008236947 0.00957582 -0.08979886 -0.14757207 0.016516466 -0.01531129 0.05403968 -0.10200669

fc.weight f4 [3, 128]
00000000: 8b10 403c c5ae 54bb ba75 ef39 c2ca eebc
00000010: 9efb 523c 8fcc 78bb 0e7b e1ba 7430 bfba
00000020: c57e 96ba d457 933b e5bd 91bb a521 f53c
00000030: f062 acbb 091e d43b 81a8 ce3a 2f8f d03c
00000040: 8a1b 5e3a 5153 453c 8db5 883b f3aa 37bc
00000050: 81bb a5bc 199e 103b 6514 e6ba e167 94b7
00000060: 3123 6dbb 4deb 123d 41a4 ec3c 2aff ba3c
00000070: 02ba bc3c b30c 69bc 29f4 adba befc 86b9
00000080: 1bda fc3c c39c 03bd 7ebe f83c ae55 d8bc
00000090: 4e88 85bb 2687 273d 12fa 9ebb 7b8b a53b
000000a0: a7f3 9dbc 1156 033d 6151 efbc f284 c03a
000000b0: 44c8 a5bc 99d1 e03a 7518 e1bc 2a20 f53c
000000c0: 7a9f 043c 6cff 54bb a2cb c6bc ee0a 533c
000000d0: 7cf1 2f3a 3020 ebbb 2e37 0bb9 bb9d 44bb
000000e0: d57c 133b c93d 223c 97cc b53c 36c8 8fbc
000000f0: e7c7 57ba 0bdf 53bc 43a8 2ebc 5b71 3c3c
00000100: 6210 8a3b 7861 43b9 f113 d1bb dce2 8c3b
00000110: 77a7 a63a 446b 023d fd88 933c 69cd d63a
00000120: 9c96 9fbb 66cd 03ba 6103 0ebd df85 b33a
00000130: 8708 7abc e88a 6d3b b220 aebc f209 8ebc
00000140: 0b06 19bd 7ebd 88bc 1ce0 963b b9e8 a33c
00000150: e7af 013d 2b50 34bd c1c7 b93c 5a20 bc3b
00000160: a6d6 003b cb59 1fbd b81a 13bd 58c5 6fb9
00000170: ce11 df3a 54eb 803c 3c0b 44bb 9fa9 033d
00000180: 328f 643b 5db1 03bc dfd4 d5bc faf8 063d
00000190: daaa 4cbc 2e0d dabb b9a7 25bd 1cfa 2c3b
000001a0: d0b3 163c 0238 123d 0236 953c 8f30 343b
000001b0: 3dab 11bd 9c4d 983c f91b 943c 61a1 4b3c
000001c0: 51de ff38 2819 cf3c 1ac7 9fbb ee20 9a3a
000001d0: 4499 b93c 5f25 de3b ca33 d938 ad25 cebb
000001e0: 9443 1dbc a633 383c ef4a 12bd 5954 ce3c
000001f0: 6702 ffb9 fabf b4bc 1804 cebc 5b40 513c
00000200: 2de6 e7ba ab8b b63b 321a 9637 25d7 de3c
00000210: 939f 193c 8c35 d3b9 2b42 063b 82b2 cf3a
00000220: 442f 7cb8 21f3 e6bb 904b c43c 62a0 3a3c
00000230: 8ecf b53b 6b54 72bc e6ab 913b dcb3 e3bc
00000240: fefe 763a ba78 043c 1c0e ae3a 85f7 3cbc
00000250: d373 88bc 0fbe faba d9f7 2a3b 6950 363b
00000260: 61c6 33bb fd94 a9bc 0fa5 09bd dcd8 bd3c
00000270: 9e90 38bc c9b3 0f3d 085a 1a3b 6fc2 c4ba
00000280: 31b4 623c e7c5 f03a de78 0b3d 9068 d9bb
00000290: e0ad 593c cf22 ef3b 0d3a 91bb f936 60bb
000002a0: 52c6 b1bb af3d d7bc 0093 d03b 25e6 1cba
000002b0: 8b37 9cbc 5aeb 4cbb f56f f1bc 1663 8e3c
000002c0: 14c5 123c 5815 15bc 230c 8c3c 7732 a53b
000002d0: 370a 7ebc 9097 183c d58c 983b 8577 c03b
000002e0: 4437 7ebb b22c e63b 8821 973c bcda 523c
000002f0: db3f 33bb 2853 24bc a009 ee3c 81d1 7c3c
00000300: bb28 0d3b a4f8 ba39 0131 05bb f676 40bc
00000310: d146 1dbb 89ae d63c f137 5cbb 8478 f23b
00000320: a29e bfb9 818a 15bc 2f94 2cbc 4a2f 03bd
00000330: 9be4 a13c ef39 7f3c 67d7 d13c 3f00 bebc
00000340: 7050 02bd 0799 bfbb a7d1 c9ba bccc 7cbc
00000350: 4b60 23bd 5c86 b13c 5d8c 80bc 4834 14bb
00000360: 78a1 a23b 0a9e 513c 2370 523c 37a2 973a
00000370: 6a9f 36b7 b2ab 84bc b00c d2ba 26a4 0b3d
00000380: 32a5 95bc e28c 453a b1f2 1fbc f94d adbc
00000390: 46f2 0c3c 56e2 5c3b 0631 27bd b982 78bc
000003a0: dac6 823a fa5e 1c3d ab12 ae3b 7e7d d1ba
000003b0: 67ba 19bd 2213 513c a092 5a3c f765 1abc
000003c0: 53cd 92bb eb84 313c 26d1 a7bc dfe5 e43a
000003d0: ffcf 2f3c 73d0 48bb e365 0cbb 83ed 94bb
000003e0: b807 9639 143c 4ebc 0ce1 0f3d fa8f e9ba
000003f0: 43d2 293b c574 cb3b a8c3 ddbc 5435 353c
0.011722694 -0.0032452804 0.00045673345 -0.029149417 0.012877373 -0.0037963723 -0.0017202811 -0.0014586584
-0.0011481872 0.004496554 -0.004447686 0.02992327 -0.0052608177 0.006473307 0.0015766771 0.0254589
0.00084727316 0.01204379 0.004172033 -0.011210191 -0.02023101 0.002206689 -0.0017553685 -1.7691347e-05
-0.0036184306 0.03586893 0.028886916 0.02282675 0.023037914 -0.014224219 -0.0013271618 -0.0002574678
0.03086572 -0.03213192 0.030364271 -0.026408043 -0.0040750867 0.040900372 -0.004851588 0.0050520278
-0.019281222 0.0320645 -0.02921361 0.0014688058 -0.020237096 0.0017152309 -0.027477482 0.029922564
0.008094663 -0.0032500876 -0.024267022 0.012881024 0.0006711704 -0.007175468 -0.00013276629 -0.0030001241
0.0022504826 0.009902426 0.022192283 -0.017551523 -0.0008231387 -0.012931596 -0.010660234 0.011501635
0.0042133788 -0.00018632959 -0.006380551 0.0042995047 0.0012714703 0.031840578 0.018009657 0.0016388121
-0.004870249 -0.000502786 -0.03467119 0.0013696513 -0.015260822 0.0036246125 -0.021255825 -0.017338727
-0.03735928 -0.01669192 0.0046043526 0.020008432 0.031661894 -0.044021767 0.022678258 0.0057411613
0.001965919 -0.038903993 -0.035914153 -0.00022866332 0.0017018856 0.015737213 -0.0029913923 0.032144185
0.003487539 -0.008037892 -0.026102481 0.032952286 -0.012491906 -0.006654403 -0.040443156 0.0026394194
0.009198144 0.035697944 0.01821423 0.0027494763 -0.035563696 0.018591695 0.018079745 0.012428612
0.00012200757 0.02528055 -0.0048760297 0.0011759081 0.02265609 0.0067793573 0.00010357013 -0.0062911124
-0.009598631 0.011242783 -0.035715993 0.025186704 -0.0004863918 -0.022064198 -0.025148436 0.012771691
-0.0017692499 0.005570849 1.7893592e-05 0.027202198 0.009376424 -0.00040284952 0.0020486217 0.0015846046
-6.01255e-05 -0.007048026 0.023961812 0.011390777 0.005548424 -0.014790635 0.0044455407 -0.027795725
0.0009422152 0.008085424 0.0013279351 -0.011533623 -0.016656792 -0.0019130128 0.002608767 0.0027818924
-0.0027431475 -0.020700926 -0.033604678 0.023174696 -0.011264948 0.035083566 0.0023552198 -0.0015011559
0.013836906 0.0018369526 0.034050815 -0.0066347793 0.013286084 0.0072978507 -0.004431969 -0.0034212454
-0.005425253 -0.02627453 0.00636518 -0.0005985222 -0.019069454 -0.003126821 -0.02947233 0.017381232
0.00895812 -0.009099327 0.017095631 0.0050414163 -0.015505365 0.009313479 0.0046554604 0.005873623
-0.0038790265 0.007024371 0.018448606 0.012869533 -0.0027351293 -0.010029592 0.029057324 0.015430809
0.002153917 0.00035661936 -0.0020323398 -0.0117471125 -0.0023998509 0.026206272 -0.003360268 0.0073996205
-0.0003654855 -0.00912726 -0.010533377 -0.03202752 0.019762328 0.015577777 0.025615407 -0.023193477
-0.031814992 -0.0058470997 -0.0015397564 -0.015429672 -0.039886754 0.021670513 -0.01569193 -0.002261417
0.004963096 0.012794027 0.012844118 0.001156873 -1.0885162e-05 -0.016195152 -0.001602551 0.03409209
-0.018267248 0.0007535947 -0.009762452 -0.021155344 0.008602684 0.0033704243 -0.040818237 -0.015167885
0.0009977475 0.038176514 0.005312284 -0.0015982834 -0.037531283 0.012760909 0.013340622 -0.009423724
-0.004480043 0.010834913 -0.020485472 0.0017463526 0.0107307425 -0.0030641824 -0.0021423034 -0.004544915
0.0002861598 -0.012587566 0.03512673 -0.0017819398 0.002591268 0.0062089884 -0.027070835 0.011060078

fc.bias f4 [3]
00000000: 841c 94bd d0b2 16be 7473 ef3d
-0.072320014 -0.14716649 0.11691943
