CNN_best.pth (torch, 102887 bytes, 4 tensors)

conv1.weight f4 [128, 64, 3]
0.08645303 -0.0017171089 0.10204752 -0.08938001 0.02544762 -0.05018685 0.14489265 0.21581998
0.26576692 -0.051007804 -0.08069824 -0.030153193 -0.012464446 -0.017950352 0.09723185 0.027895866
-0.028748142 0.061000586 -0.13380693 0.0029520171 -0.009776128 0.07227858 0.07490257 0.08043288
-0.16873892 -0.19533171 -0.18919541 -0.029028056 0.053328555 0.03389213 0.01334423 0.103946656
-0.016275797 -0.07679201 -0.07508901 0.026013374 0.11705713 0.120141566 0.063988686 -0.18466353
-0.1766588 -0.060162213 0.077108875 -0.006903578 0.0435271 -0.099706925 0.010257663 -0.069601186
0.04584117 0.034248155 -0.03612773 -0.019619927 -0.23908512 -0.09960981 0.07542283 0.19875528
0.090947956 0.032576412 0.050015986 0.06356889 0.08200518 -0.06932497 0.058178265 0.08199365
0.21248426 0.08464187 -0.045268368 -0.11730908 -0.048713125 0.10328962 0.0592146 0.12067718
0.0076911915 0.05238191 0.019711204 -0.0054646456 0.03507363 -0.070684224 -0.068274856 -0.05680314
-0.08012407 0.016602442 -0.14079162 0.04678534 -0.054275103 0.01378611 0.04072893 -0.045484226
0.0038957808 -0.16808882 0.09129239 0.009159762 0.0804008 -0.029791769 0.09667183 0.016408876
-0.044758204 0.12751897 -0.08540785 -0.050997823 0.089513294 -0.1780036 0.01113549 0.088807374
-0.12312475 -0.023601292 0.04560943 -0.12626997 -0.05976987 0.15893824 -0.08064117 0.08621634
0.06812988 -0.022909973 0.17717433 0.08276445 0.002585237 -0.03250983 -0.01461936 0.002824081
0.013563781 0.025208805 -0.0799707 0.011671228 -0.03919423 -0.1119809 0.041871835 0.1969635
0.045741837 -0.008817284 -0.06082814 -0.030336544 -0.006258001 0.075691715 -0.039505642 -0.018817931
0.048638094 -0.16875647 0.002921759 -0.006762232 -0.14345413 0.07611856 -0.014884194 -0.032715928
-0.029791508 0.1068453 -0.16943577 0.16738044 -0.019505817 -0.03624391 -0.03212204 0.029413177
-0.12790214 -0.024657447 -0.010322665 -0.13549323 0.0294688 0.08522605 -0.03773084 0.09300253
0.04255225 0.040778115 -0.0073095425 0.04183371 -0.08279457 0.0067354813 0.062211018 0.01767561
-0.13996659 -0.04175603 -0.07761431 -0.14768331 0.004490707 -0.16981345 0.058314405 -0.0010935942
0.011708556 0.09333912 -0.05107892 -0.052278627 0.11374606 0.14421344 0.07836325 0.04546544
0.06934144 -0.04342518 -0.070060425 0.082558535 -0.08617365 -0.08952296 0.0010752019 -0.14093177
0.03002412 -0.007052663 0.058619212 0.10689644 0.06551589 0.09231452 0.16143706 0.09131083
0.16871285 0.10707914 0.06148766 0.21954358 -0.047289014 -0.08816649 -0.035996538 -0.12010491
-0.028430847 0.067504875 0.3310741 0.34978956 0.28250077 -0.24029987 -0.31239283 -0.1425132
-0.24016483 -0.18425629 -0.07828239 0.12713702 0.10077091 0.06017185 -0.05933911 -0.058027454
-0.031056836 -0.0146985985 -0.08684197 0.0901703 0.18672054 0.314693 0.31754982 0.04943389
0.0473838 0.16561648 -0.009993399 -0.051057555 -0.017379604 0.10343378 -0.0025462264 0.07406615
-0.14406355 -0.21007779 -0.14203382 -0.028274588 -0.014971878 0.12675013 -0.15742537 -0.13527782
-0.06744895 -0.010540687 -0.053867258 -0.082239084 -0.03767025 0.034390505 0.09605181 -0.21342869
00000000: 490e b13d 9d10 e1ba 4afe d03d de0c b7bd
00000010: 8777 d03c ba90 4dbd bd5e 143e eaff 5c3e
00000020: 9a12 883e 8fed 50bd 1e45 a5bd d403 f7bc
00000030: ad37 4cbc 9e0c 93bc 7e21 c73d df85 e43c
00000040: 3981 ebbc c0db 793d af04 09be a176 413b
00000050: 0e2c 20bc cb06 943d 8566 993d feb9 a43d
00000060: e5c9 2cbe 0905 48be 71bc 41be 3fcc edbc
00000070: 0b6f 5a3d 79d2 0a3d c2a1 5a3c fce1 d43d
00000080: d254 85bc 2145 9dbd 44c8 99bd 001a d53c
00000090: a6bb ef3d c80c f63d 800c 833d 7018 3dbe
000000a0: 0be6 34be a76c 76bd 42eb 9d3d 6937 e2bb
000000b0: 7949 323d 2533 ccbd c20f 283c 118b 8ebd
000000c0: f3c3 3b3d cb47 0c3d acfa 13bd f8b9 a0bc
000000d0: bbd2 74be 3a00 ccbd 4977 9a3d 8186 4b3e
000000e0: ec42 ba3d d86e 053d 90dd 4c3d 6830 823d
000000f0: 55f2 a73d 40fa 8dbd 554c 6e3d 49ec a73d
00000100: 7995 593e b758 ad3d 536b 39bd be3f f0bd
00000110: 6a87 47bd 8289 d33d 028b 723d 9925 f73d
00000120: 6406 fc3b 6a8e 563d 6479 a13c c510 b3bb
00000130: 5ea9 0f3d e4c2 90bd b0d3 8bbd 69aa 68bd
00000140: 1718 a4bd d801 883c ae2b 10be fca1 3f3d
00000150: 924f 5ebd 23df 613c 61d3 263d ab4d 3abd
00000160: 5b50 7f3b 7a1f 2cbe 81f7 ba3d d412 163c
00000170: 2da9 a43d de0d f4bc e1fb c53d e86b 863c
00000180: 6154 37bd 5594 023e 50ea aebd 18e3 50bd
00000190: bf52 b73d 9346 36be a171 363c a4e0 b53d
000001a0: d428 fcbd 7f57 c1bc f4d0 3a3d ea4c 01be
000001b0: 40d1 74bd b5c0 223e 3327 a5bd 3192 b03d
000001c0: ae87 8b3d b2ad bbbc 306d 353e 6880 a93d
000001d0: 146d 293b 0729 05bd 0a86 6fbc 3814 393b
000001e0: 9f3a 5e3c b282 ce3c aec7 a3bd ae38 3f3c
000001f0: 218a 20bd 3e56 e5bd cd81 2b3d cdb0 493e
00000200: cb5b 3b3d 5f76 10bc ed26 79bd 5884 f8bc
00000210: eb0f cdbb 4204 9b3d abd0 21bd 1028 9abc
00000220: bd38 473d 7fce 2cbe fb7a 3f3b b795 ddbb
00000230: a4e5 12be 0ce4 9b3d d6dc 73bc 2301 06bd
00000240: 520d f4bc b5d1 da3d 9280 2dbe c765 2b3e
00000250: aaca 9fbc 7f74 14bd 6692 03bd e7f3 f03c
00000260: c7f8 02be 6afe c9bc 6520 29bc bdbe 0abe
00000270: 8e68 f13c ff8a ae3d a78b 1abd 1c78 be3d
00000280: 454b 2e3d f406 273d e384 efbb d359 2b3d
00000290: 3390 a9bd 50b5 dc3b fbd0 7e3d 71cc 903c
000002a0: 6753 0fbe 5f08 2bbd 40f4 9ebd 4b3a 17be
000002b0: c826 933b 94e3 2dbe 16db 6e3d ef56 8fba
000002c0: 3ed5 3f3c 9528 bf3d 2138 51bd 1d22 56bd
000002d0: b2f3 e83d b0ac 133e e97c a03d f839 3a3d
000002e0: e302 8e3d 9ade 31bd d77b 8fbd 7314 a93d
000002f0: d07b b0bd d057 b7bd caed 8c3a 6b50 10be
00000300: 25f5 f53c 061a e7bb b31a 703d 85ec da3d
00000310: 322d 863d 650f bd3d c24f 253e 2c01 bb3d
00000320: 10c3 2c3e 4f4c db3d 7cda 7b3d 08d0 603e
00000330: 20b2 41bd a290 b4bd 1b71 13bd 90f9 f5bd
00000340: cfe7 e8bc ff3f 8a3d 8b82 a93e 9e17 b33e
00000350: f1a3 903e 2b11 76be f4f1 9fbe fbee 11be
00000360: c5ed 75be aead 3cbe 8552 a0bd 3530 023e
00000370: fb60 ce3d c276 763d 910d 73bd 32ae 6dbd
00000380: e86a febc 64d2 70bc 34da b1bd 35ab b83d
00000390: ab33 3f3e 711f a13e e495 a23e 317b 4a3d
000003a0: 8415 423d 5e97 293e 5abb 23bc ba21 51bd
000003b0: ac5f 8ebc 17d5 d33d 97de 26bb feaf 973d
000003c0: 6585 13be a21e 57be 5071 11be 1ca0 e7bc
000003d0: 9c4c 75bc c9ca 013e 1e34 21be 4586 0abe
000003e0: ad22 8abd d8b2 2cbc eaa3 5cbd f76c a8bd
000003f0: 1f4c 1abd 0fdd 0c3d d0b6 c43d 0d8d 5abe

conv1.bias f4 [128]
-0.26843247 0.060926728 -0.32404453 -0.14799203 0.13855754 -0.6396888 0.15550227 -0.44791144
-0.41315606 -0.2875082 -0.33755723 -0.1377884 -0.38011864 -0.46460718 -0.25199634 -0.35073674
-0.3865686 -0.3605002 0.010748787 -0.37711057 -0.35440734 -0.3181984 -0.28561968 -0.1907687
-0.27938983 -0.2612067 -0.25017366 -0.32140127 -0.3299199 -0.3409809 -0.40173632 -0.06995489
-0.32015026 -0.39777547 -0.4497798 -0.32431036 -0.3093963 -0.546517 -0.31375307 -0.23531827
-0.553264 -0.3911597 -0.6716532 -0.44801566 -0.11870377 -0.33581936 0.07085916 -0.24943729
-0.17537855 -0.391225 -0.3947015 -0.20748095 0.14609192 -0.25477237 -0.52323204 -0.226734
-0.46250254 -0.38174948 -0.329479 -0.40277094 0.12986666 -0.40619364 -0.47286975 -0.331401
-0.2796719 -0.22530572 -0.31299034 -0.15076718 -0.091524795 -0.42687827 0.06887971 -0.06535239
-0.23463684 -0.35097018 -0.004051962 0.14200643 -0.14209828 -0.1169314 -0.33454263 -0.39118746
0.19328159 -0.6073422 0.035402257 -0.35397568 0.047687244 -0.2473895 0.11192183 -0.19239765
-0.2513789 -0.38817734 -0.20624144 -0.5401695 -0.351692 -0.37283292 -0.042104296 -0.24026172
-0.40560278 -0.0028945892 -0.26042542 -0.08497154 -0.11220572 0.50806934 -0.5538963 -0.46181628
-0.473807 -0.23516202 -0.6019645 0.14104205 -0.21336219 -0.24237184 -0.2939513 -0.12724772
-0.21802595 0.22783527 -0.10261834 -0.10389298 -0.26204577 -0.33556843 -0.27809256 -0.37378097
-0.1721594 -0.3109151 -0.06168952 -0.4405918 -0.22585581 -0.37934667 -0.294139 0.14068046
00000000: fb6f 89be 4e8e 793d 2ae9 a5be 398b 17be
00000010: 07e2 0d3e a5c2 23bf fd3b 1f3e a654 e5be
00000020: 3189 d3be 4634 93be 4dd4 acbe 6718 0dbe
00000030: e99e c2be fee0 edbe aa05 81be c493 b3be
00000040: 52ec c5be 7b93 b8be ae1b 303c a314 c1be
00000050: e174 b5be e7ea a2be be3c 92be df58 43be
00000060: 2f0c 8fbe e2bc 85be c316 80be b58e a4be
00000070: 43eb a8be 0c95 aebe 62b0 cdbe 8244 8fbd
00000080: bcea a3be 3aa9 cbbe 8a49 e6be 020c a6be
00000090: 3169 9ebe 8ae8 0bbf 3ea4 a0be 46f7 70be
000000a0: b6a2 0dbf 1646 c8be 77f1 2bbf 4f62 e5be
000000b0: f61a f3bd 84f0 abbe 9b1e 913d 7d6c 7fbe
000000c0: 6f96 33be a54e c8be 5116 cabe e375 54be
000000d0: 1f99 153e 8671 82be 89f2 05bf f52c 68be
000000e0: 22cd ecbe ab74 c3be 79b1 a8be fe37 cebe
000000f0: c4fb 043e 9df8 cfbe fc1b f2be 64ad a9be
00000100: 2831 8fbe 8bb6 66be 4540 a0be b662 1abe
00000110: 5a71 bbbd ca8f dabe ce10 8d3d 79d7 85bd
00000120: a444 70be 5db2 b3be 52c6 84bb 226a 113e
00000130: 3682 11be bb79 efbd 2c49 abbe b949 c8be
00000140: 9ceb 453e c77a 1bbf f501 113d 4d3c b5be
00000150: b353 433d ac53 7dbe 4637 e53d e403 45be
00000160: bcb4 80be 2ebf c6be f530 53be 8c48 0abf
00000170: f910 b4be f5e3 bebe 8e75 2cbd 2b07 76be
00000180: 2bab cfbe 26b3 3dbb 7b56 85be 8f05 aebd
00000190: 1dcc e5bd d510 023f 26cc 0dbf 2f73 ecbe
000001a0: d596 f2be 50ce 70be 581a 1abf 546d 103e
000001b0: 9e7b 5abe 5330 78be c980 96be 3a4d 02be
000001c0: 3242 5fbe a64d 693e 9029 d2bd d8c5 d4bd
000001d0: dd2a 86be a0cf abbe 2662 8ebe 3860 bfbe
000001e0: 8e4a 30be 4430 9fbe 26ae 7cbd 4095 e1be
000001f0: bf46 67be ba39 c2be 6399 96be 8a0e 103e

fc.weight f4 [3, 128]
-0.021749685 0.09332634 -0.12605515 0.045733448 0.073341474 0.05755603 0.024811938 0.04284096
-0.027966123 -0.016801689 -0.05118661 0.07935614 0.054269128 0.033054825 -0.056967694 -0.061754286
-0.12305129 -0.039544754 0.048051376 -0.08688565 -0.059036873 -0.07733874 -0.08718968 0.08145576
-0.005785645 0.0447842 -0.07321826 -0.075190045 -0.12966256 -0.059678726 0.14811972 0.07713995
-0.070538156 0.0077836113 0.008205602 0.039355412 -0.049772084 0.024637472 -0.06258611 0.010189984
0.018262958 -0.06499312 0.033905994 -0.057702404 0.0228124 -0.10358824 0.13664196 0.04431004
-0.036061242 -0.09852474 0.01443475 -0.12925634 0.052220535 0.0124897435 0.04097536 0.15226495
0.020765848 0.1130894 0.019351456 0.03888494 0.06328709 -0.083494276 -0.0423378 -0.072891675
-0.13583505 -0.12619445 -0.15525852 0.09698206 0.017353231 -0.07767103 0.07514789 0.026065383
-0.063929036 -0.12599276 0.052055027 0.06315181 -0.0449261 0.048048157 -0.058495015 -0.042486362
0.10609853 0.022462454 0.068807416 -0.008146064 -0.021441502 -0.086753406 -0.0034929358 -0.08643714
-0.0367937 -0.008306448 -0.05952224 0.0036874327 0.021285914 -0.037303105 0.053408217 -0.070729986
-0.075498424 0.009609043 -0.066165276 0.06858786 -0.026083069 0.050763093 0.0494197 -0.035674278
0.050442707 -0.16255024 0.07134021 -0.019010525 0.020705512 -0.077226564 -0.06585379 0.032016393
-0.068814024 0.100822605 0.016113263 0.021286942 -0.07115549 -0.056202088 -0.030796692 -0.103139095
-0.073582515 -0.041289564 0.06609584 -0.06436566 -0.08142325 0.0066298456 0.10120103 0.06131759
-0.06311514 -0.1390376 0.15089868 0.027896121 -0.00010980963 0.016273113 -0.053691957 0.038340475
0.031519033 0.016022213 0.09332222 0.082975835 0.069684036 0.020599296 0.0036382193 -0.027307335
0.120136686 0.05586813 -0.013112888 0.12217375 0.062551424 0.0660711 0.070861585 -0.1041187
0.0631427 0.05604007 0.024884019 0.09159678 0.13493024 0.048176575 -0.43542963 0.09252171
0.056233365 0.04343533 0.03874086 0.03489481 0.07937692 -0.0032586707 0.07281051 -0.08071618
0.114107706 0.10138256 0.0119809415 -0.06593938 -0.15859652 0.119510576 -0.1827923 0.011742971
0.010451552 0.12874015 0.050649527 0.10448802 0.0073362077 0.002069221 0.05782155 0.01343715
0.024843879 -0.21417868 -0.02280419 -0.18126324 -0.021968493 0.03968266 0.105804585 0.016011713
0.16672742 0.109880485 0.061435137 -0.18183404 0.0026832395 0.07398649 -0.13270353 -0.037461046
0.020664347 0.11288403 -0.029199785 -0.08086213 0.03165439 0.106021844 0.045131624 0.044692043
-0.14274068 0.018696288 0.0021312532 -0.060212266 -0.026589809 0.099169835 -0.032837644 0.06763227
0.057795644 -0.0059204893 0.01850926 0.013345698 0.0022502851 0.06047539 0.017273434 -0.06667507
0.08958657 -0.16153923 0.050476857 0.010788174 -0.052617542 -0.147996 -0.016435878 0.07126262
0.029866407 0.18648739 0.08337564 -0.07371256 0.034737147 0.034506377 0.07383108 0.0656845
0.058636907 -0.1871333 -0.011994235 -0.009817954 0.07143209 0.017704666 0.003833874 0.11486832
-0.11128406 0.0014255623 -0.11428254 0.05716005 -0.029591097 0.025591457 -0.07015444 -0.048133604
00000000: 652c b2bc e121 bf3d 9a14 01be ff52 3b3d
00000010: 0e34 963d dfbf 6b3d 6842 cb3c 017a 2f3d
00000020: 3619 e5bc b2a3 89bc 0da9 51bd 7985 a23d
00000030: 4e49 5e3d 7f64 073d f556 69bd 10f2 7cbd
00000040: 5102 fcbd aef9 21bd 85d1 443d 1bf1 b1bd
00000050: a6d0 71bd c663 9ebd 8190 b2bd 47d2 a63d
00000060: 8295 bdbb a36f 373d 75f3 95bd 3dfd 99bd
00000070: 43c6 04be ae71 74bd b2ac 173e 8dfb 9d3d
00000080: 4f76 90bd aa0d ff3b ca70 063c 2433 213d
00000090: d0dd 4bbd 86d4 c93c 252d 80bd e4f3 263c
000000a0: 339c 953c 1d1b 85bd 03e1 0a3d 5b59 6cbd
000000b0: 12e1 ba3c 1226 d4bd dfeb 0b3e 727e 353d
000000c0: f4b4 13bd 57c7 c9bd bb7f 6c3c c65b 04be
000000d0: 33e5 553d c8a1 4c3c c7d5 273d 58eb 1b3e
000000e0: 241d aa3c 6a9b e73d f286 9e3c d145 1f3d
000000f0: a99c 813d 0cff aabd 676a 2dbd 3b48 95bd
00000100: 5818 0bbe 1e39 01be 17fc 1ebe 889e c63d
00000110: 5d28 8e3c fd11 9fbd 23e7 993d 1287 d53c
00000120: 3aed 82bd 3f04 01be a737 553d bc55 813d
00000130: 6e04 38bd 25ce 443d 7898 6fbd 2e06 2ebd
00000140: 304a d93d 2e03 b83c e7ea 8c3d 1277 05bc
00000150: 17a6 afbc c5ab b1bd bde9 64bb f505 b1bd
00000160: feb4 16bd c517 08bc 98cd 73bd dba8 713b
00000170: cc5f ae3c 24cb 18bd 93c2 5a3d e2da 90bd
00000180: eb9e 9abd 3f6f 1d3c a981 87bd cb77 8c3d
00000190: 29ac d5bc f6ec 4f3d 506c 4a3d 311f 12bd
000001a0: 039d 4e3d 9273 26be d11a 923d f6bb 9bbc
000001b0: 9b9e a93c f628 9ebd 5ade 86bd 9f23 033d
000001c0: 5eee 8cbd 157c ce3d f6ff 833c f461 ae3c
000001d0: f8b9 91bd 2934 66bd 5849 fcbc 973a d3bd
000001e0: 6eb2 96bd 3f1f 29bd 415d 873d 25d2 83bd
000001f0: 3cc1 a6bd 2d3f d93b 7c42 cf3d 2728 7b3d
00000200: 8342 81bd df5f 0ebe 2f85 1a3e 6886 e43c
00000210: 9949 e6b8 314f 853c 19ec 5bbd e70a 1d3d
00000220: 1a1a 013d 0441 833c b81f bf3d 3cef a93d
00000230: 81b6 8e3d dbbf a83c 316f 6e3b a2b3 dfbc
00000240: 390a f63d fbd5 643d 70d7 56bc 3b36 fa3d
00000250: f61a 803d 4950 873d e11f 913d 2f3c d5bd
00000260: f650 813d 468a 653d 92d9 cb3c 1897 bb3d
00000270: 272b 0a3e cd54 453d a2f0 debe 067c bd3d
00000280: f554 663d 3fe9 313d bcae 1e3d dced 0e3d
00000290: 5e90 a23d 6c8f 55bb ad1d 953d 864e a5bd
000002a0: 4db1 e93d a9a1 cf3d b64b 443c 3a0b 87bd
000002b0: 2067 22be f6c1 f43d e82d 3bbe 9765 403c
000002c0: fd3c 2b3c 75d4 033e e175 4f3d d1fd d53d
000002d0: 9264 f03b c59b 073b 4ad6 6c3d 7e27 5c3c
000002e0: 6485 cb3c a851 5bbe dacf babc 129d 39be
000002f0: 45f7 b3bc 498a 223d 13b0 d83d ff2a 833c
00000300: 98ba 2a3e 0509 e13d 69a3 7b3d b432 3abe
00000310: 4ad9 2f3b 3b86 973d 6fe3 07be c170 19bd
00000320: 4748 a93c be2f e73d 6334 efbc 0b9b a5bd
00000330: 09a8 013d fb21 d93d f0db 383d 010f 373d
00000340: 9d2a 12be f528 993c 7fac 0b3b 23a1 76bd
00000350: dfd2 d9bc 8e19 cb3d c480 06bd ca82 8a3d
00000360: 20bb 6c3d aa00 c2bb bba0 973c eaa7 5a3c
00000370: 8579 133b 0bb5 773d 0481 8d3c f08c 88bd
00000380: 2a79 b73d 8a6a 25be d2c0 4e3d e2c0 303c
00000390: 7e85 57bd 438c 17be 89a4 86bc 23f2 913d
000003a0: 65aa f43c 8df6 3e3e d9c0 aa3d 9cf6 96bd
000003b0: 8a48 0e3d 8f56 0d3d c034 973d 9885 863d
000003c0: 412d 703d df9f 3fbe 7883 44bc 7cdb 20bc
000003d0: fd4a 923d 6009 913c bb41 7b3b 1540 eb3d
000003e0: e6e8 e3bd efd9 ba3a f70c eabd a820 6a3d
000003f0: 0769 f2bc 2da5 d13c 22ad 8fbd be27 45bd

fc.bias f4 [3]
0.17697234 -0.33345813 0.2016572
00000000: 3d38 353e 06bb aabe 3a7f 4e3e
