Linear_best.pth (torch, 17349 bytes, 2 tensors)

linear.weight f4 [3, 1280]
00000000: 3909 2a3b b1df 103c e927 b5bc 3383 4a39
00000010: c7f9 30bb 0b4a 953c 2876 8abb f8de 063d
00000020: 7a05 f3bc 3ab6 283b 1fa8 c2bc 8217 283c
00000030: fba4 423c 7262 5cbc 3425 a8bc 68b3 2dbc
00000040: 044f 4f3c 57db d63a 6da8 963b b930 32bc
00000050: 1882 2abc 62e0 253c d002 ccbb 530f 9ebb
00000060: 6862 173c e0f0 3cbc de11 02bc 8dc2 413c
00000070: 4309 9cbc e8e3 2bbb e06b f4ba b35b 963b
00000080: a093 d03b a1b7 55bb ab70 3d3b f58f 1dbc
00000090: c142 9abc ecb3 013c 7bb7 67bb 5115 13bc
000000a0: a2e2 91bc 99a4 10bc 76f6 be3c fbe0 c2ba
000000b0: b618 9bbb 7b5d b7bb 418d 0cbb 93d6 e93b
000000c0: d4f0 f63b f082 223c fa07 1e3a 0cd0 efba
000000d0: d53b 09ba fe70 24ba 3d23 9b3b 5491 ff3b
000000e0: 9aed a33b e0d9 eebc e9da 7b3c ce3e 00bc
000000f0: 72d5 863c 8f73 1fbd 04d0 a1ba eb49 ac3c
00000100: 9420 6abc 4a0a 023c 7542 f5bc bc93 e23c
00000110: eea4 51bc ea98 8fbc 1774 4c3c 766c 153d
00000120: a617 423c 0bea 8cbc 487b 003d 7c95 33bc
00000130: 108c b5bc 2a80 51bc 8bda ecba 31c8 87bc
00000140: 5ae8 2a3d de91 253b f7f5 823c 7aee 81bc
00000150: 6590 6abc cf81 133c e39a 203c 871f 9d3c
00000160: 3576 d9bc c442 ffbc 2476 db3c 95dd e33c
00000170: 1a64 0dbd efc6 a93c 716f 82bb a27d eb3c
00000180: 903f d73a d3d0 e8bc 042c 4b3c b25e 9d3a
00000190: 1317 d43a c771 d5bb d092 903c c184 113d
000001a0: 960b 043c f776 08bd 169a d6ba 89e4 16bb
000001b0: 063c 7a3c 36e2 f43b 578d 8fbc 62cc e03c
000001c0: aced 99bc 30a0 a3bc 5f98 daba 0823 7b3b
000001d0: b817 833c ccf5 e9bc ca9e 7a39 ca24 9c3b
000001e0: df44 f23b 6c23 71bc b4e0 283c d529 af39
000001f0: 7796 58ba 0024 3bbc 956a 9f3c 43e3 083d
00000200: fdae 17bc db25 343c 6644 703c d707 5abc
00000210: af8f 00bd 45f6 aebc 1970 1bbc 5ecf a6bb
00000220: c0d6 973c cbd5 de3b 2d7d 3dbb 0bd4 7b3c
00000230: 686b 5d3c deb6 36bd 315b c73b 5248 383c
00000240: 52e1 8e3b c4fe b03c 6b89 e23c cd37 9fbc
00000250: f0d6 75bc 1c08 bfbc b107 8f3c cede cc3c
00000260: f845 8339 1497 ff3b 61eb 4fbc 0b3f 97ba
00000270: 4d8f 1abd 9447 953b 6bc3 433c d2b4 6b3b
00000280: 3e8c 0ebb b9ba 8abc 0122 873c 4392 8f3c
00000290: b474 ebbc 9b33 0e3c a381 f43c 8671 80bb
000002a0: 48ef 4e39 1287 5f3b b3c5 b53a f2dc 893c
000002b0: 0a83 29bd 25c2 253c 25dd af3c 22ad c23b
000002c0: 64b6 003a 2400 0cbb 8c73 9b3b 8134 20bb
000002d0: 5c0f 7b3b 7159 b0bc a52b 173a d5db 1c3c
000002e0: 159a 82bb 0719 0bbd d2fd 87bc e1f0 833c
000002f0: 786f 86bc 952b a0bc e14d c5b9 0279 df3c
00000300: c032 afbc dd02 3c3c 3cc3 da3c 8b32 c8ba
00000310: 8593 07bd db5f 7fbc 885e 0d3d 6a9b f2bb
00000320: 3c71 593c 166b d0bb fc35 753c c8d3 6ebb
00000330: db14 2f3c 7b26 0ebd d443 c1ba c02d 293b
00000340: 63f2 b9bb c443 baba c7d5 97bb c519 7b3c
00000350: 3a25 69bc 5de3 833c 1c3b c73b 3082 8b3b
00000360: 603f 33bd 1094 293b a21b b63c 90fb c8bb
00000370: 5e97 9dbb a084 003c 2b9e dbbb 0f5f 013c
00000380: 576d 71bc a9aa 37bc 8c4a d63c 9198 953b
00000390: 3184 29bd 4d90 013c fd5e 083b e0a1 9039
000003a0: 21db 52bb 5057 853b 26ac 8abb f808 9a3c
000003b0: bc03 1cbb 1041 6b3c 9ad3 f03b 68df dbbc
000003c0: ee88 833a b6cb 22bb 202c 2f3b eb2a 39bc
000003d0: b50e 4e3b 37fd 85ba 8194 a4bc 3cdd 143c
000003e0: 3155 87bc 7e0d d13b 9112 133a c534 a63a
000003f0: a088 ca3c 09d3 9cbc 0a47 68bb ef9c dd3b
0.0025945439 0.008842395 -0.022113757 0.00019313097 -0.0027004348 0.018223783 -0.004225511 0.032927483
-0.029665697 0.002574338 -0.023761807 0.010259511 0.011880155 -0.013451206 -0.020525552 -0.010601856
0.012653116 0.0016392273 0.0045977146 -0.010875874 -0.010406993 0.010124298 -0.006225921 -0.004823604
0.0092397705 -0.011532038 -0.00793883 0.01182617 -0.019047385 -0.0026228372 -0.0018647872 0.004588568
0.0063652545 -0.0032610672 0.0028906267 -0.009616842 -0.018830659 0.007916432 -0.0035357166 -0.00897725
-0.017808262 -0.008828306 0.023310881 -0.0014868075 -0.0047331704 -0.0055958605 -0.0021446499 0.007136175
0.007536033 0.009918913 0.000602841 -0.0018296256 -0.0005235051 -0.00062729407 0.0047344253 0.007799307
0.0050026895 -0.029156625 0.0153720165 -0.007827474 0.0164592 -0.038928565 -0.0012345319 0.02103134
-0.014289994 0.007937023 -0.029938916 0.027658336 -0.01279567 -0.01752897 0.01247885 0.03648039
0.011846459 -0.017201444 0.03136757 -0.010960933 -0.022161514 -0.012786904 -0.0018070502 -0.01657495
0.041725494 0.0025263946 0.015986426 -0.015860785 -0.014316653 0.009003117 0.009802553 0.019180072
-0.026545623 -0.031159766 0.026789732 0.02781562 -0.034519292 0.020724742 -0.00398057 0.02874643
0.0016422141 -0.028419888 0.012400631 0.0012006371 0.0016181193 -0.0065138075 0.01764813 0.035526995
0.008059403 -0.03331658 -0.0016372825 -0.00230244 0.0152731 0.0074732555 -0.01752345 0.027441207
-0.018790089 -0.019973844 -0.001667749 0.003832044 0.01600252 -0.028559588 0.00023901011 0.004765128
0.007393464 -0.014717918 0.01030748 0.00033409768 -0.0008262167 -0.011422157 0.019460002 0.03341986
-0.009258029 0.010995354 0.014664745 -0.013307533 -0.031387027 -0.021357665 -0.009487175 -0.005090638
0.018535018 0.0068003885 -0.0028913722 0.015370379 0.013514377 -0.04460799 0.006083869 0.011247711
0.0043603564 0.021605857 0.027653417 -0.019435788 -0.015004858 -0.023319297 0.017459722 0.025008585
0.00025038398 0.0077999923 -0.012690396 -0.0011539174 -0.03773432 0.004555652 0.011948447 0.0035965932
-0.0021751071 -0.01693474 0.016495707 0.017525798 -0.028742172 0.008679296 0.029846972 -0.003919783
0.0001973483 0.0034107608 0.0013868123 0.016828988 -0.041384734 0.010117088 0.021467755 0.005941049
0.0004909991 -0.0021362389 0.004743999 -0.0024445357 0.0038308715 -0.021527024 0.00057666964 0.009573896
-0.003985653 -0.033959415 -0.016600523 0.016106071 -0.016410574 -0.019552032 -0.00037632792 0.02727938
-0.021386504 0.011475292 0.026704423 -0.0015273852 -0.03309967 -0.015586819 0.03451398 -0.0074037807
0.013271626 -0.006360422 0.014966484 -0.003644215 0.010686125 -0.034704667 -0.0014744946 0.0025814623
-0.0056746467 -0.001421087 -0.0046336385 0.015325968 -0.014230067 0.016099626 0.0060800444 0.004257463
-0.04376161 0.0025875606 0.022229973 -0.006133504 -0.004809304 0.00784412 -0.0067022047 0.007896199
-0.014735541 -0.011210122 0.026158594 0.0045653065 -0.041385833 0.007907939 0.002080857 0.00027586427
-0.0032174068 0.0040692464 -0.0042319475 0.018803105 -0.0023805937 0.014358774 0.0073494436 -0.026839927
0.0010035315 -0.002484066 0.0026729181 -0.011301736 0.0031441872 -0.0010222559 -0.020090343 0.0090859495
-0.016520115 0.006379782 0.00056103716 0.0012680521 0.024723351 -0.019143598 -0.0035442733 0.0067630927

linear.bias f4 [3]
00000000: a48b 463a b91a 80bb 093c adbb
0.00075739087 -0.0039094356 -0.0052866978
