Linear_best.pth (torch, 17349 bytes, 2 tensors)

linear.weight f4 [3, 1280]
0	0x3c7a061e	0.0152602475
1	0xbc299a2e	-0.010351701
2	0x3c894361	0.016755762
3	0xbcd6702e	-0.026176538
4	0x3c93d1c8	0.018044367
5	0xbbaf6ae3	-0.005353318
6	0xbc7aaffc	-0.015300747
7	0x3afee292	0.0019446185
8	0x3becbeb4	0.007224882
9	0x3c2d4efe	0.010577915
10	0xbc43a720	-0.011941701
11	0x3bb6af14	0.00557507
12	0x3a1778e0	0.00057782046
13	0xbc6661ec	-0.014061432
14	0x3c1e13c5	0.009648268
15	0xba029a32	-0.00049820833
16	0x3c35dc4d	0.011099887
17	0xbcc51a40	-0.024060369
18	0x3bcd506a	0.0062656896
19	0x3c649331	0.013951109
20	0xbb2a4c10	-0.0025985278
21	0x3c23cecc	0.009998035
22	0xbbecd220	-0.0072271973
23	0xbbde2614	-0.0067794416
24	0x38a4856a	7.84498e-05
25	0xbc876351	-0.01652685
26	0xb89b5798	-7.4072916e-05
27	0x3c24bb96	0.01005449
28	0x3c069b45	0.00821573
29	0x3c38edee	0.011287196
30	0xbcb05857	-0.021526499
31	0x3cd8bed5	0.026458183
32	0xbc506bb5	-0.012720992
33	0xbc738309	-0.014862784
34	0x3ca4a52c	0.020098291
35	0xbb047e54	-0.00202169
36	0x3ca1d87a	0.019756544
37	0xbb61d348	-0.0034458209
38	0x3bdb81ca	0.0066988217
39	0xbcc1f32f	-0.02367553
40	0x3c8285bb	0.015932908
41	0x3c04f0f9	0.008114093
42	0xbcb5590e	-0.022137191
43	0x3c10c55e	0.0088361185
44	0x3bb4a1fa	0.005512473
45	0x3c1c691b	0.0095465435
46	0xbc8bc4ba	-0.01706158
47	0x3bba5d61	0.005687401
48	0xbb3d07e2	-0.002884381
49	0xbc73c56a	-0.01487861
50	0xbbd97052	-0.006635704
51	0xbadafb24	-0.0016706926
52	0xbc2ba83b	-0.010477121
53	0x3b262421	0.0025351124
54	0x3ccbf243	0.024895793
55	0x3c44bd22	0.012007983
56	0xbc65dc0f	-0.014029517
57	0x3c0bb609	0.008527287
58	0xbbf6c73f	-0.007531076
59	0xbafbc40f	-0.001920821
60	0xbc8a98d6	-0.016918581
61	0x3cbcac0c	0.023031257
62	0x3cf82d0c	0.030294918
63	0xbc433fe1	-0.011917085
64	0xbc81faa2	-0.015866581
65	0xbc1f9bef	-0.009741767
66	0xbbd46523	-0.006481783
67	0x3c8b9073	0.017036652
68	0x3c70b0fc	0.014690634
69	0xbca17f1c	-0.01971393
70	0xbc7050cd	-0.014667702
71	0x3cb2df7f	0.021835087
72	0x3c56ec57	0.013117871
73	0xbc191473	-0.009343254
74	0xbb594b45	-0.0033156436
75	0xbca6203d	-0.020279044
76	0xbc7dc4a9	-0.015488782
77	0x3ccb2390	0.024797231
78	0x3b86065f	0.004090115
79	0xbbc656cd	-0.006052828
80	0xbc8a4571	-0.016878815
81	0x3c9a894e	0.0188643
82	0xbb5b1619	-0.003342992
83	0x3b809917	0.0039244997
84	0xbc08258e	-0.008309735
85	0x3b8d1289	0.004305188
86	0x3cecec0f	0.028921155
87	0xbcb75550	-0.022379547
88	0xbc1721e5	-0.00922439
89	0xbc9af986	-0.01891781
90	0x3c9dc027	0.019256664
91	0x3c7e55f6	0.015523424
92	0xbc99d429	-0.018777924
93	0x3c61c6eb	0.013780336
94	0x3bf790b0	0.00755509
95	0xbc5bf435	-0.013424923
96	0xbae7fd38	-0.0017699366
97	0xbbb2470f	-0.0054405998
98	0xbbacd331	-0.0052741994
99	0x3b75ce9d	0.0037507184
100	0xbc91781a	-0.017757464
101	0x3c78028b	0.015137325
102	0xb96da82b	-0.00022664729
103	0x3c5d4b90	0.013506785
104	0x3a925f30	0.0011167284
105	0x3bf5d08c	0.0075016674
106	0x3c8316df	0.016002117
107	0xbc05e23c	-0.008171614
108	0x3ba4945b	0.005022568
109	0xbc3907cc	-0.011293363
110	0x3ca27a7e	0.0198338
111	0xbc7f0284	-0.015564565
112	0xb643b4cd	-2.9162504e-06
113	0xbc7fff86	-0.015624886
114	0xbc5610ee	-0.01306556
115	0xbc8fe6c2	-0.017566089
116	0xbabcdbd4	-0.0014408776
117	0x3c2582cb	0.010101984
118	0x3c835323	0.016030854
119	0x3ae7a600	0.0017673373
120	0xbc790f9e	-0.015201477
121	0x3c8e48df	0.017368732
122	0xbc7f0b41	-0.015566648
123	0xbc720455	-0.014771541
124	0xbba89b07	-0.005145434
125	0x3b1a07b8	0.0023503136
126	0x3b95bae8	0.0045694
127	0xba9357e9	-0.0011241409
128	0x3c0fb0d3	0.0087701855
129	0xbb0439c6	-0.0020176037
130	0x3c3782f5	0.011200656
131	0x39d7c2ff	0.0004115328
132	0x3c85b5f3	0.016322112
133	0x3b061d71	0.0020464326
134	0xbb2ba90b	-0.0026193287
135	0xbaa00a55	-0.001221011
136	0x3c12db7f	0.008963465
137	0xbc867d92	-0.016417298
138	0xbc767867	-0.015043355
139	0x3c1e77ac	0.009672087
140	0x3b624178	0.0034523886
141	0xbc5c9801	-0.013463975
142	0xbc363da5	-0.011123096
143	0xbc118936	-0.008882811
144	0xbb026a32	-0.0019899723
145	0x3c652bf9	0.013987535
146	0x3b3a940b	0.0028469588
147	0x3c5b8c4e	0.01340015
148	0x3bd10180	0.0063783526
149	0xbbc4ebe9	-0.006009568
150	0xbc4f94e4	-0.012669776
151	0xbad4b842	-0.001622923
152	0x3c289f88	0.010291941
153	0xbc51df62	-0.012809606
154	0xbb1dd674	-0.0024084123
155	0x3c06009a	0.008178854
156	0x3c1a4056	0.009414753
157	0xbc245507	-0.010030038
158	0x3b341256	0.002747675
159	0x3b9c09a2	0.0047618905
160	0x3b53a20c	0.0032292632
161	0x3be36678	0.0069397055
162	0xbc9b8cd8	-0.018988058
163	0x3c9a9866	0.018871497
164	0xbc8598d0	-0.016308218
165	0xbaab6553	-0.0013076462
166	0x3bcd3f39	0.0062636402
167	0xbc9daa80	-0.01924634
168	0x3cb593a4	0.022165127
169	0x3a90719d	0.0011020188
170	0xbcb7ee40	-0.022452474
171	0x3cc62e05	0.024191866
172	0xbc4bc77a	-0.012437696
173	0x3cc53382	0.024072412
174	0xbc82cf21	-0.015967907
175	0x3be050b9	0.0068455604
176	0xbbee9b72	-0.007281714
177	0xb925dab8	-0.00015817105
178	0xbb1253ba	-0.0022327737
179	0x3c7ff701	0.015622855
180	0xbc9fa123	-0.019486016
181	0x3c66010a	0.014038334
182	0xbbd03d29	-0.006354947
183	0xbbc4bb2e	-0.006003759
184	0x3b1068a1	0.002203502
185	0xbcd5b42b	-0.026086887
186	0xbc741744	-0.014898125
187	0x3caf69a1	0.021412672
188	0x3c887e2a	0.016661722
189	0x3c5d1cd1	0.01349564
190	0x3bdbbed4	0.006706098
191	0xbbd9565d	-0.0066326098
192	0xbc0182ef	-0.007904752
193	0x3ce57185	0.028008232
194	0xbc2ae652	-0.010430889
195	0xbbea7b94	-0.007155845
196	0xbc6ed140	-0.014576256
197	0x3b2beda2	0.002623417
198	0x3c45ac20	0.012064964
199	0xbaff3793	-0.0019471518
200	0xbca04632	-0.019564722
201	0xbb838149	-0.0040132147
202	0x3cd5a798	0.026080891
203	0x3cb4abeb	0.022054633
204	0xbafbee2b	-0.001922076
205	0xbc3b94c2	-0.011449041
206	0x3b97d663	0.004633711
207	0x3b368d51	0.0027855227
208	0xbb855aa0	-0.004069641
209	0xbc3051ac	-0.01076166
210	0x3be162d7	0.0068782377
211	0xbc98ad5c	-0.018637352
212	0xbc15450a	-0.0091106985
213	0x3cb978bc	0.022640578
214	0xbc451cf7	-0.012030832
215	0x3c74eded	0.014949304
216	0xbca3cbee	-0.019994702
217	0x3c3ac405	0.011399274
218	0x3bb6c211	0.0055773337
219	0xbb51ce23	-0.0032013736
220	0x3929763b	0.0001616114
221	0xbb792ff6	-0.0038022972
222	0x3ccda546	0.025103223
223	0xbcd2b6a0	-0.025721848
224	0x3c186533	0.0093014715
225	0x3c8248ff	0.015903948
226	0x3b6bb492	0.0035965783
227	0xbcc89553	-0.024485266
228	0x3bc9d81c	0.0061597954
229	0xbc1306d9	-0.008973801
230	0x3c765250	0.015034273
231	0xbcb34e5e	-0.021887954
232	0x3c760730	0.015016362
233	0x3c6665e4	0.014062379
234	0xbc26fd6d	-0.010192257
235	0x3b6655db	0.0035146389
236	0x3c1624fc	0.009164091
237	0x3c200705	0.009767299
238	0xba28d12e	-0.00064398616
239	0xbc6f4144	-0.014602963
240	0xbc6743bc	-0.01411527
241	0xbc873531	-0.016504856
242	0x3cc2c561	0.023775758
243	0xbc681371	-0.014164791
244	0xbc6e55db	-0.014546837
245	0x3d070102	0.032959945
246	0xb9f95b2e	-0.00047560915
247	0x3c7b747a	0.015347594
248	0xbc15b1be	-0.009136615
249	0x3ce73d00	0.02822733
250	0xbc81e674	-0.015856959
251	0xbb900ce0	-0.004396066
252	0xbc330b94	-0.010928053
253	0x3d144f90	0.03620869
254	0x3a58d2f9	0.00082711835
255	0xbc9e4b29	-0.019322949

linear.bias f4 [3]
0	0x3d9aad87	0.07552629
1	0xbd453aab	-0.048151653
2	0x3d78a6a7	0.060705807
