Linear_best.pth (torch, 17349 bytes, 2 tensors)

linear.weight f4 [3, 1280]
000000 8e f9 fb 3a 32 cc 28 3a c7 f8 a0 bb eb 81 c2 bb
       0.0019224153 0.0006439119 -0.004912469 -0.0059358976
000010 f9 60 c3 bb e0 09 3e 3c dd e4 10 bc 00 54 9f 3c
       -0.005962488 0.011599034 -0.008843628 0.019449234
000020 6e 48 34 bc 95 c4 7d 3c 20 b7 60 bc 4f a2 76 3b
       -0.011003597 0.015488763 -0.013715535 0.0037633365
000030 9c 4b 1a 3c 3d b9 58 bc 59 4f b3 ba 35 44 82 bc
       0.009417441 -0.013227758 -0.0013680264 -0.015901664
000040 fe f1 d3 3b c4 c5 8f 3c b4 b9 34 bb 34 9d 84 bc
       0.0064680567 0.017550357 -0.0027576508 -0.016188242
000050 67 78 9c 3c 61 94 84 bc 6c 89 5a bc 2f a8 5c 3a
       0.019100381 -0.016184034 -0.013338428 0.00084173953
000060 a5 5e 82 3b ac fd bd 3b c4 1c 48 3c c8 ec c4 b9
       0.0039785677 0.0057980623 0.0122138895 -0.0003756045
000070 1a c5 e1 bc 8e 27 e1 ba 2c 63 01 3d 16 5d e1 3c
       -0.027559806 -0.0017177926 0.03158872 0.027510207
000080 99 6f 9a 39 bb 0d 19 bc a9 a4 8a bc 02 eb e5 3c
       0.00029456316 -0.0093416525 -0.01692422 0.028066162
000090 30 46 bf bc ee 8f d4 bc 63 b6 02 3d d1 02 6e 39
       -0.023348898 -0.025947537 0.03191222 0.00022698498
0000a0 94 9b 27 bc 38 11 ad bc e4 25 8a 3b 58 57 3f 3c
       -0.010229964 -0.021126375 0.0042159427 0.011678539
0000b0 3c f4 f5 bb 42 4c 3a bc ce db 66 3b 1b b8 c2 3b
       -0.0075059216 -0.01137072 0.0035226229 0.0059423572
0000c0 de a2 80 3c dd 3b 85 3b 4b b5 c6 3b dd ff 9a ba
       0.015702661 0.004065974 0.0060640923 -0.0011825521
0000d0 9e 2f 14 bd fc 87 0a 3c 9c 48 81 3c 21 b7 b8 3c
       -0.036178224 0.008455273 0.015781693 0.02254826
0000e0 49 a6 ba bc 6f 52 9f bc 64 1c db 3b 0a 6e 71 3c
       -0.022784369 -0.019448487 0.006686734 0.014735708
0000f0 28 29 ed bc ea fe 9a 39 fb 7e e1 ba 44 dc 0c 3c
       -0.028950289 0.00029563095 -0.0017203981 0.008597437
000100 cb 27 f8 bc 3d 9e 97 3c ab b0 83 3c 26 91 2e 3c
       -0.030292412 0.018508071 0.016075453 0.010654723
000110 ee 73 a9 bc 01 a5 1b bb 50 ef c8 bb 0a 1c c7 3c
       -0.020685162 -0.0023749473 -0.006132044 0.024305362
000120 42 0b b6 bc 75 34 9b b9 27 cf 8a 3c ac cb 29 bc
       -0.022222165 -0.00029602987 0.016944481 -0.010363501
000130 0d dd 9f bb db 33 21 3c 23 8f 94 bb eb 5a 8d ba
       -0.004878646 0.009839023 -0.004533665 -0.0010784542
000140 47 ec 1c 3c bf 43 05 3c f8 16 e6 3b 3b ac 05 39
       0.009577817 0.008133828 0.007021781 0.00012748029
000150 5a dd 37 3c 54 28 b7 bc 51 74 85 3c 22 16 a4 bc
       0.011222208 -0.022358097 0.016290816 -0.020030085
000160 2c 9f 6c bc 03 7f 0e bb 52 b7 72 bc ab b0 85 3c
       -0.014442246 -0.0021743185 -0.014814215 0.016319593
000170 69 f4 51 3b 40 8d 5f 3c d0 85 ba 3b 97 64 21 bc
       0.003203655 0.0136445165 0.005692221 -0.009850643
000180 01 b0 aa 3b 5a 70 6b 3c f4 7f d3 39 25 c8 5b bc
       0.0052089696 0.014370048 0.0004034039 -0.013414417
000190 d4 9f 20 3c ca 25 e2 bb 84 61 b3 3c f2 13 18 bb
       0.009803731 -0.0069014775 0.021897085 -0.0023205248
0001a0 24 8e ed 3c 85 ea 6e bc 66 ec 2e bc d1 c4 0f 3c
       0.028998442 -0.014582281 -0.010676479 0.008774952
0001b0 1e 77 bc bc fd 9a ca b9 a6 6a ae 3c 17 a0 7c bc
       -0.023006018 -0.00038643918 0.021291088 -0.015419028
0001c0 74 3d 5e 3c c4 87 b8 3b aa 81 bf bc 69 65 20 3a
       0.013564456 0.005631419 -0.023377258 0.0006118627
0001d0 f1 22 15 3b dc 58 24 3c b8 3d 8a 3c 32 cc d7 bc
       0.0022756422 0.010030951 0.016875133 -0.026342485
0001e0 28 5e b6 3b 96 1f 99 3b 0a 6e 29 bd a5 09 05 3b
       0.0055654235 0.004672955 -0.041364707 0.0020299938
0001f0 06 60 8a bc f3 83 ea 3b 63 fa 03 3c cd 1e ff 3b
       -0.01689149 0.007156843 0.008055302 0.007785654
000200 e1 6d 57 bb a6 50 ba 3b 01 05 5d 3c 47 62 b8 bc
       -0.003287189 0.0056858836 0.013489963 -0.0225078
000210 87 d2 84 bc 03 8a 7c 3c 26 69 7f bc 61 0d 3f 3c
       -0.016213669 0.015413764 -0.015589034 0.011660905
000220 93 9f 86 bc 7d a2 9a bb 07 ec d6 39 0e 2a 5c 39
       -0.016433513 -0.004719077 0.00040993115 0.00020996502
000230 69 3c 83 3c ce 48 af ba 88 af 4e bc a7 32 2a 3c
       0.016020017 -0.0013373138 -0.012615092 0.010388053
000240 f6 0d 77 bc 00 21 1d b9 db 9a 8b 3c 1d 96 d9 bc
       -0.015079012 -0.0001498498 0.017041614 -0.026560837
000250 cf 04 c2 bb 21 f6 a8 bb 78 e5 c6 3b b6 82 1b 3d
       -0.0059209834 -0.005156294 0.0060698353 0.037966453
000260 90 7f 7c bb 33 72 80 bc 82 23 aa b9 18 45 af bc
       -0.0038528182 -0.015679454 -0.00032451382 -0.021395251
000270 45 da a8 bb 49 df 8a bc 32 97 ee bb bc a2 3f bb
       -0.005152973 -0.016952174 -0.0072812075 -0.0029241284
000280 8f 7b 91 3c 92 33 9b 3b 19 ca 55 bc 00 7e 22 bc
       0.017759113 0.0047363723 -0.013048672 -0.009917736
000290 fb e1 43 ba 7b be a3 3c b4 8e c4 ba db 64 d2 3b
       -0.00074723334 0.01998829 -0.0014996142 0.0064207143
0002a0 23 fc a1 3c 99 99 3e bc bd 74 1a bc 20 eb e7 3b
       0.019773548 -0.0116333 -0.009427247 0.0070775896
0002b0 52 50 1e 3c 96 4c b8 bc 2b de d6 3c 90 e2 b0 3b
       0.009662705 -0.022497457 0.026228985 0.005398102
0002c0 e2 23 14 b9 6b e9 04 3c 29 b0 c8 bb f0 91 f7 3a
       -0.00014127747 0.008112292 -0.0061245156 0.0018888097
0002d0 c6 24 86 3b da 1a 74 3c 94 c7 25 3b 33 d6 f8 bb
       0.004093739 0.01489898 0.002529596 -0.007593894
0002e0 56 4a b8 bc 01 da d9 bb af 1f 83 bb c2 84 c4 3b
       -0.022496384 -0.0066483025 -0.0040015797 0.0059972713
0002f0 55 48 1c bd 3a 20 4f 3c a6 bf e4 bc 90 5a de 3c
       -0.03815492 0.012641961 -0.027923416 0.027142793
000300 0e 6a 41 3c 20 38 4b 3b 99 c7 46 3c 29 3e 6a 3c
       0.011805071 0.0031008795 0.012132549 0.014297047
000310 ac b5 65 bc 97 ce 9d bc df 33 0c 3c 77 b8 64 3a
       -0.014020365 -0.019263549 0.008557289 0.0008724997
000320 b1 c7 fe 3b 05 31 0a 3c be 33 02 bb 23 6c 1d 3c
       0.00777527 0.008434539 -0.0019867267 0.009608301
000330 6b 50 db bc 8c d2 2e 3c ac 47 d0 bc b9 cb e7 3a
       -0.026771745 0.0106703155 -0.0254248 0.0017684615
000340 67 a4 48 3b 10 f5 d9 bb 9c 3a 7b 3c d6 6b 90 bc
       0.003061557 -0.006651528 0.015333798 -0.017629545
000350 f3 15 17 bb ec d6 a3 bc 03 80 b9 3c 74 7c 22 bc
       -0.0023053854 -0.019999944 0.022644049 -0.009917367
000360 79 a9 a3 3b 09 f6 9c 3b 16 3c 7e 3c 25 02 44 3b
       0.004994568 0.004790072 0.015517255 0.0029908505
000370 2c c1 92 bc b8 3b 24 3b d2 93 69 bc 63 ca 37 3c
       -0.017914377 0.002506001 -0.0142564345 0.011217686
000380 3e 9a 8e 3b bd 41 6c b8 da 0f 5b bc 05 76 86 3c
       0.004351883 -5.632801e-05 -0.0133704785 0.016413698
000390 22 ce 88 3c d5 36 9e bc 96 3e 5b bc 45 1c 40 bc
       0.016699854 -0.019313255 -0.013381621 -0.01172549
0003a0 2b de d1 bc bc bc cb 3a 9a a8 88 3c d6 e5 99 3c
       -0.025618633 0.0015543918 0.016681958 0.018786352
0003b0 d3 d1 81 3c 8f 79 0c bc 1f cf ab bb 97 37 f3 3b
       0.015847122 -0.008573904 -0.0052431966 0.0074223983
0003c0 f6 01 f3 3a f9 27 2f bc c0 99 5d 3c fa dc 80 bc
       0.0018540013 -0.010690683 0.013525426 -0.01573037
0003d0 64 20 41 3c 30 d2 32 bb 96 58 49 3a f2 58 55 3c
       0.011787508 -0.0027285926 0.0007680742 0.0130216945
0003e0 66 e2 a5 ba 9b 8d 59 bc 6b bd c7 3a f2 51 d7 3c
       -0.0012655973 -0.01327839 0.0015238946 0.026284192
0003f0 fd 60 61 ba d3 d4 bb bc a2 c4 08 bb 77 6b 9d bc
       -0.0008597521 -0.022928631 -0.0020869155 -0.019216282

linear.bias f4 [3]
000000 36 b4 a9 3a 5d da ff bb 4f 7d d2 b9
       0.0012947384 -0.0078080134 -0.00040147683
