LSTM_best.pth (torch, 401331 bytes, 6 tensors)

lstm.weight_ih_l0 f4 [512, 64]
-0.026463237 0.07857133 0.09868847 -0.049167383 0.2876818 0.08349739 0.09298704 0.15078908
0.29483604 0.03948414 -0.09351328 0.047648087 0.029632343 0.097994104 -0.07709618 0.08591593
-0.07317157 -0.1866793 -0.008345743 0.036800474 -0.23137952 0.058092143 -0.07958583 0.007996943
0.0063533955 -0.1069577 0.10264677 -0.088529915 -0.09017279 0.0071368585 -0.1047293 0.00027054004
0.10317126 -0.03937777 0.12571356 -0.013305684 0.06848081 -0.10375632 0.07700652 -0.1181855
-0.092922136 -0.029734677 0.059105854 -0.18825135 0.023040554 0.10243572 0.08802114 0.13210507
-0.012333255 -0.05300331 -0.05538751 -0.009686795 -0.021622565 -0.0026425363 -0.00296604 0.13886745
0.11931858 -0.049694274 0.003503534 -0.0094633885 0.08366684 -0.020350568 0.109616086 0.0058413413
0.003770133 -0.0150976 0.03611646 0.16071707 0.082706794 0.08346879 -0.051570345 -0.04270308
-0.00525089 0.0581692 0.069007896 0.059042975 0.034903694 -0.076979175 0.23207492 0.043667346
-0.027253639 0.03922805 0.15195185 -0.029583348 -0.07608412 0.12969953 -0.0027653724 -0.061123308
0.009888767 -0.02761276 0.025173685 -0.040114544 -0.1287913 0.037658546 0.018550662 -0.017351799
-0.00020850234 0.109773025 0.12130009 -0.08888498 -0.10121614 -0.033556536 0.02016649 -0.026043192
0.030338405 0.20018527 0.012313206 0.043466225 -0.104543 0.064373866 -0.028851008 0.11684663
0.012532635 0.33719504 0.089394785 0.051108927 0.13283196 0.0639804 0.10688788 0.11839779
0.054140933 0.005433951 0.06367594 0.16054626 0.08769746 0.0744914 0.053486805 0.21987996
0.13221824 -0.011972961 -0.006193752 0.06826937 0.20788635 0.089257084 0.014625515 -0.013818532
0.018970706 0.11507884 0.043428596 0.037134353 0.19973843 0.05891874 0.13788846 0.08438451
0.08190177 0.3298233 0.16473646 0.06420306 0.049736086 0.09991882 0.0035240995 -0.06178513
0.05331086 -0.009579023 0.032964613 0.113942005 -0.078026764 -0.115530245 0.011676271 0.060930923
-0.052581158 -0.05702127 0.04025351 0.11747062 -0.06633975 0.081421815 -0.015672106 0.07352393
-0.14287268 0.07818781 -0.007847431 0.02212952 -0.042036224 0.07839187 0.0067437133 0.081671566
0.0068141744 0.117189996 -0.0041403933 -0.0038836144 0.13604832 0.020413656 0.13553268 0.10146353
0.037586804 0.05672106 0.13562438 0.057159834 0.06549787 0.00082493614 -0.035903677 0.15922874
0.018625222 0.02330963 0.11195539 -0.12189913 0.13185644 0.08818583 -0.06842636 -0.022268873
0.05794485 -0.020838492 -0.016775172 -0.18014847 -0.016265282 0.05061895 0.027787553 -0.111024044
0.11048266 0.13541847 0.0066562337 -0.07561488 0.14443511 0.16138883 -0.04474226 -0.0010007311
0.015331096 0.093008235 -0.023347378 0.16984245 0.08710292 -0.07444751 0.044706568 -0.058125008
0.09411372 -0.10618301 -0.13132834 -0.026206901 -0.14011927 -0.032941062 -0.04544876 0.0050619007
0.07300463 -0.045629494 -0.14276025 -0.018913003 0.0702039 -0.0014438917 -0.02538416 0.13761827
-0.06596606 0.06690215 -0.03609653 0.045818865 0.050149504 0.19296065 -0.060552724 0.12231192
-0.05219458 -0.05868713 -0.0854862 0.12034199 0.013626812 0.17455147 0.044366356 -0.013262988
00000000: 6ec9 d8bc 01ea a03d 2e1d ca3d bd63 49bd
00000010: 074b 933e ae00 ab3d fd6f be3d 7468 1a3e
00000020: c0f4 963e 1fba 213d e483 bfbd a42a 433d
00000030: 87bf f23c 22b1 c83d 9ae4 9dbd b1f4 af3d
00000040: fada 95bd dc28 3fbe 95bc 08bc 18bc 163d
00000050: c1ee 6cbe 07f2 6d3d e5fd a2bd 9c05 033c
00000060: 2530 d03b a30c dbbd 7838 d23d 2c4f b5bd
00000070: 83ac b8bd 4fdc e93b 517c d6bd 45d7 8d39
00000080: 744b d33d 964a 21bd 0ebb 003e 1500 5abc
00000090: ab3f 8c3d 327e d4bd 98b5 9d3d 3d0b f2bd
000000a0: f64d bebd 2396 f3bc fb18 723d f6c4 40be
000000b0: 8bbf bc3c d2c9 d13d 6d44 b43d 8d46 073e
000000c0: 6c11 4abc 001a 59bd 04de 62bd 5db5 1ebc
000000d0: ce21 b1bc 672e 2dbb e561 42bb 4533 0e3e
000000e0: 4d5d f43d 398c 4bbd 8c9b 653b 540c 1bbc
000000f0: 8559 ab3d 3cb6 a6bc 667e e03d b968 bf3b
00000100: 5614 773b ed5b 77bc daee 133d 0493 243e
00000110: 2e62 a93d aff1 aa3d 6d3b 53bd 6de9 2ebd
00000120: a80f acbb d442 6e3d 0354 8d3d 0cd7 713d
00000130: 2df7 0e3d 42a7 9dbd 0ca5 6d3e 88dc 323d
00000140: 0643 dfbc 97ad 203d 4499 1b3e c758 f2bc
00000150: fed1 9bbd f4cf 043e 403b 35bb 6f5c 7abd
00000160: 7f04 223c 2834 e2bc 0b39 ce3c 264f 24bd
00000170: dee1 03be d93f 1a3d 8ff7 973c 5c25 8ebc
00000180: 6ca1 5ab9 aed0 e03d 2e6c f83d 5409 b6bd
00000190: 684a cfbd 9472 09bd 3234 a53c 8858 d5bc
000001a0: 3f88 f83c 5efd 4c3e 54bd 493c a409 323d
000001b0: a41a d6bd 72d6 833d f358 ecbc 494d ef3d
000001c0: ae55 4d3c d4a4 ac3e 9d14 b73d 9857 513d
000001d0: 1a05 083e 2808 833d 08e8 da3d 8a7a f23d
000001e0: e2c2 5d3d 490f b23b 8868 823d 3d66 243e
000001f0: ba9a b33d f28e 983d fb14 5b3d 3628 613e
00000200: 3864 073e 3d2a 44bc f5f4 cabb d0d0 8b3d
00000210: 29e0 543e 6bcc b63d db9f 6f3c 2067 62bc
00000220: 7468 9b3c 74ae eb3d 2fe2 313d 311a 183d
00000230: 3b88 4c3e c754 713d a232 0d3e c9d1 ac3d
00000240: 1dbc a73d 99de a83e adb0 283e e57c 833d
00000250: 11b8 4b3d 3da2 cc3d 94f4 663b 6812 7dbd
00000260: 7d5c 5a3d 56f1 1cbc e705 073d 6d5a e93d
00000270: 7fcc 9fbd 1f9b ecbd d54d 3f3c b492 793d
00000280: 575f 57bd 238f 69bd dde0 243d 7094 f03d
00000290: 23dd 87bd 7bc0 a63d ca62 80bc b793 963d
000002a0: 374d 12be ee20 a03d 8392 00bc f848 b53c
000002b0: 2d2e 2cbd eb8b a03d 5efa dc3b 6c43 a73d
000002c0: 7049 df3b 4f01 f03d 23ac 87bb 3d84 7ebb
000002d0: 4050 0b3e 8a3a a73c 14c9 0a3e 1ccc cf3d
000002e0: 9ff4 193d 5854 683d 1ee1 0a3e 6e20 6a3d
000002f0: bf23 863d 8740 583a bc0f 13bd dc0c 233e
00000300: ec93 983c d6f3 be3c de48 e53d 40a6 f9bd
00000310: 6005 073e c69a b43d 1f23 8cbd 366d b6bc
00000320: 9457 6d3d 7cb5 aabc 166c 89bc d778 38be
00000330: c53e 85bc d155 4f3d b9a2 e33c 9360 e3bd
00000340: bc44 e23d 24ab 0a3e 891c da3b f9db 9abd
00000350: cce6 133e 1d43 253e a943 37bd f72a 83ba
00000360: 472f 7b3c 1a7b be3d 0043 bfbc 2eeb 2d3e
00000370: 0463 b23d f077 98bd 3c1e 373d 7d14 6ebd
00000380: b2be c03d 7a76 d9bd f07a 06be dbaf d6bc
00000390: 6d7b 0fbe 35ed 06bd 7b28 3abd 4dde a53b
000003a0: 7483 953d fee5 3abd be2f 12be 71ef 9abc
000003b0: 10c7 8f3d f740 bdba 71f2 cfbc ceeb 0c3e
000003c0: 3719 87bd ff03 893d f4d9 13bd 90ac 3b3d
000003d0: 9169 4d3d 7a97 453e 2206 78bd ac7e fa3d
000003e0: fcc9 55bd eb61 70bd 6413 afbd dc75 f63d
000003f0: fe42 5f3c 9fbd 323e 7fb9 353d 014d 59bc

lstm.weight_hh_l0 f4 [512, 128]
-0.0027110933 -0.070758715 0.06113711 -0.07757958 -0.01095909 0.14508209 -0.08070256 -0.089490175
-0.050655358 -0.22270744 -0.07330377 -0.16399135 0.05584455 0.063586265 0.15441355 -0.044091705
0.10798191 -0.01463917 0.069046274 0.1500478 -0.2422466 -0.08380337 -0.20235547 -0.06686903
-0.018127702 0.0731103 0.058643322 -0.26458538 -0.039460935 -0.29564902 -0.20105061 -0.07301696
0.064634345 -0.002639987 -0.098294646 -0.12339737 0.11071538 0.09142645 9.8249235e-05 -0.062464125
-0.04609475 0.12763585 -0.08659984 0.10106365 -0.12925266 -0.19829926 0.16290733 -0.10284757
-0.034234684 0.021394556 -0.053034663 -0.015467722 -0.09951678 -0.16404487 -0.18229364 -0.2160292
-0.15275663 0.13809957 0.017714173 0.08129163 -0.027985716 0.010560259 0.22652684 -0.102487296
-0.17152664 0.043172233 -0.08839805 -0.01040445 0.04893003 -0.091103785 -0.09749334 -0.029144324
0.115149535 0.15427026 -0.010653587 0.08639388 0.1885283 0.19488893 0.051846698 -0.05103645
0.009986354 -0.04088944 0.10351624 0.16621722 -0.069549486 -0.18752111 -0.0015101347 0.1025198
-0.035019033 0.05735522 -0.04231291 0.029727815 -0.011496657 -0.18148632 -0.2553387 -0.04068433
0.2185635 0.21144904 0.11322714 0.09467557 0.20705011 0.12870216 0.060546596 -0.06690119
-0.01593157 0.006352726 -0.0037627188 -0.05113307 -0.0071414365 0.079797804 0.066775106 0.065616
-0.15562102 0.0039973115 -0.008580553 0.0055023693 -0.017872298 -0.045381263 -0.09127497 -0.20689589
-0.07675891 -0.019519908 -0.13862267 -0.15222421 0.06341231 -0.051081363 -0.1907232 -0.002266888
-0.07663468 0.14973903 -0.025008466 0.018925896 0.11234518 -0.008062206 0.057527874 0.072036
0.24498096 -0.12299535 0.0757375 0.0075616953 0.070561275 -0.023226427 -0.06926966 -0.0663381
-0.075675905 0.0043502245 -0.12653121 -0.12281963 0.079171024 0.010864232 -0.119026214 -0.07108244
-0.2060805 0.20468342 -0.1907959 0.26950994 -0.20400906 0.1439841 -0.25347826 0.15604576
0.06219978 -0.057772294 0.055791657 0.16974135 0.0052180556 -0.11944166 0.19589233 0.20013295
0.14774092 0.04834367 0.014740342 0.22849579 0.20917141 0.12370922 -0.09849631 -0.2117316
-0.10195809 -0.16203666 0.18663353 -0.23794192 0.23310946 0.05940094 -0.15053672 -0.079378456
0.041563593 0.19023027 0.0026712187 -0.061173238 0.0185013 -0.08899423 -0.12414211 0.014783078
0.14918472 -0.018312538 0.083645664 0.31581026 0.016953414 0.25959855 -0.22013737 -0.1293813
-0.17985426 -0.26841658 -0.23141693 0.026403766 -0.06877902 0.079347305 -0.20349212 0.2475752
-0.0067528207 -0.11424599 0.11605553 -0.20100835 0.01521916 0.05887232 -0.117831066 0.097624905
0.2904618 -0.33420074 0.009085077 -0.033264507 -0.19959162 -0.057630207 -0.07923621 -0.02960815
0.08189303 -0.24527214 0.12514359 -0.20240651 -0.19900931 -0.12195023 0.24735095 0.08574614
0.048135694 0.09117992 -0.09140522 0.19648251 0.13277288 -0.13947491 -0.08780456 -0.04262432
0.0016006352 0.24823481 -0.12343772 0.11603506 -0.13810965 -0.29005685 0.15707347 0.038102712
-0.063299306 0.06146744 0.037025165 0.22608061 -0.17335212 -0.2793655 0.2730837 0.23487929
00000000: 99ac 31bb f2e9 90bd e86a 7a3d 0be2 9ebd
00000010: c18d 33bc 6690 143e 6247 a5bd a046 b7bd
00000020: fe7b 4fbd 6b0d 64be 4920 96bd 59ed 27be
00000030: 41bd 643d 8439 823d 961e 1e3e 8199 34bd
00000040: 9f25 dd3d 21d9 6fbc 2268 8d3d 21a6 193e
00000050: 7e0f 78be 1aa1 abbd 4636 4fbe a1f2 88bd
00000060: 8c80 94bc daba 953d fb33 703d bc77 87be
00000070: caa1 21bd 4f5f 97be 36e0 4dbe ea89 95bd
00000080: 035f 843d a203 2dbb b44e c9bd c3b7 fcbd
00000090: bfbe e23d ca3d bb3d 280b ce38 62da 7fbd
000000a0: d9cd 3cbd f9b2 023e 425b b1bd 75fa ce3d
000000b0: cf5a 04be f60e 4bbe 2ed1 263e bfa1 d2bd
000000c0: ab39 0cbd a343 af3c e03a 59bd 546c 7dbc
000000d0: 74cf cbbd 61fb 27be 2fab 3abe c236 5dbe
000000e0: 3c6c 1cbe f969 0d3e 501d 913c 3a7c a63d
000000f0: 4d42 e5bc f004 2d3c a7f6 673e dce4 d1bd
00000100: aea4 2fbe 5ed5 303d 090a b5bd 6d77 2abc
00000110: db6a 483d 9f94 babd 97aa c7bd 14c0 eebc
00000120: 85d3 eb3d 06f9 1d3e 628c 2ebc 46ef b03d
00000130: 900d 413e f790 473e 345d 543d 990b 51bd
00000140: ce9d 233c af7b 27bd 5300 d43d d934 2a3e
00000150: f66f 8ebd 8905 40be b6ef c5ba e7f5 d13d
00000160: 1e70 0fbd 4fed 6a3d 4d50 2dbd bf87 f33c
00000170: 795c 3cbc 8dd7 39be c1bb 82be 9da4 26bd
00000180: 1ccf 5f3e 1986 583e a1e3 e73d 44e5 c13d
00000190: f204 543e 80ca 033e b5ff 773d 7e03 89bd
000001a0: ed82 82bc 872a d03b f297 76bb e970 51bd
000001b0: b602 eabb 086d a33d 63c1 883d ae61 863d
000001c0: 1e5b 1fbe e1fb 823b 7395 0cbc 384d b43b
000001d0: ed68 92bc b4e1 39bd 5fee babd 84dc 53be
000001e0: c733 9dbd 37e8 9fbc 1af3 0dbe aae0 1bbe
000001f0: 50de 813d b13a 51bd f14c 43be 1290 14bb
00000200: a5f2 9cbd 3055 193e 8ede ccbc 7b0a 9b3c
00000210: 3b15 e63d 5817 04bc 59a2 6b3d 9c87 933d
00000220: 4adc 7a3e fce4 fbbd 431c 9b3d 19c8 f73b
00000230: 6e82 903d 5945 bebc 40dd 8dbd 45dc 87bd
00000240: f8fb 9abd 548c 8e3b 6691 01be dc88 fbbd
00000250: 6b24 a23d e4ff 313c 04c4 f3bd ac93 91bd
00000260: c406 53be 8898 513e 0060 43be 35fd 893e
00000270: c0e7 50be 9170 133e e7c7 81be 76ca 1f3e
00000280: 32c5 7e3d a4a2 6cbd cb85 643d add0 2d3e
00000290: 39fc aa3b d49d f4bd 0098 483e a7ef 4c3e
000002a0: 6549 173e 0304 463d 7a81 713c cdfa 693e
000002b0: 0831 563e 425b fd3d 6fb8 c9bd 2bd0 58be
000002c0: 67cf d0bd f0ec 25be dc1c 3f3e 0ca7 73be
000002d0: 3fb4 6e3e 664e 733d 4c26 1abe 2c91 a2bd
000002e0: 963e 2a3d b9cb 423e 9d0f 2f3b ca90 7abd
000002f0: 0a90 973c 9b42 b6bd 383e febd b934 723c
00000300: e1c3 183e 2d04 96bc 6b4e ab3d e2b1 a13e
00000310: e3e1 8a3c 1aea 843e b16b 61be 887c 04be
00000320: b72b 38be e66d 89be 8ff8 6cbe b64c d83c
00000330: 04dc 8cbd d780 a23d 3d60 50be 5a84 7d3e
00000340: c446 ddbb cdf9 e9bd 86ae ed3d 22d5 4dbe
00000350: c959 793c 1a24 713d 6a51 f1bd 91ef c73d
00000360: 69b7 943e 5c1c abbe 93d9 143c 5d40 08bd
00000370: bf61 4cbe a70d 6cbd 9846 a2bd ca8c f2bc
00000380: 88b7 a73d 9f28 7bbe a425 003e a743 4fbe
00000390: 19c9 4bbe 0bc1 f9bd 9149 7d3e ac9b af3d
000003a0: ef29 453d 8abc ba3d a932 bbbd b632 493e
000003b0: 9df5 073e 83d2 0ebe e1d2 b3bd d796 2ebd
000003c0: 68cc d13a 4431 7e3e eacc fcbd caa3 ed3d
000003d0: 9e6c 0dbe 5582 94be ded7 203e 9711 1c3d
000003e0: 11a3 81bd 48c5 7b3d b3a7 173d ad81 673e
000003f0: 3883 31be ff08 8fbe a0d1 8b3e 3284 703e

lstm.bias_ih_l0 f4 [512]
-0.22418393 -0.026103716 -0.21638374 -0.08603144 -0.084229924 -0.15401351 0.01396109 -0.08670542
-0.14667396 -0.1728604 -0.009690075 -0.16057085 0.047464903 -0.07310364 -0.046031173 -0.06483346
0.14737383 -0.05208449 0.055706926 -0.021905603 -0.08194179 -0.05358266 0.004428421 -0.1722142
-0.036667664 -0.023810014 0.05565582 -0.05724386 -0.06779227 -0.1257444 -0.07972544 0.041495267
-0.022455316 -0.12775521 -0.09289658 -0.15129086 -0.05774323 -0.22262461 -0.17028773 -0.078725584
-0.12553374 0.060180355 -0.0860858 -0.06289753 -0.1403338 -0.10367367 0.038313128 -0.01122568
-0.13699608 -0.114674576 -0.054211568 -0.1588744 -0.09501928 -0.17245804 0.056646395 -0.14308545
-0.026238339 -0.13219853 -0.05377166 -0.24549334 -0.22067651 -0.10052063 0.08287302 -0.09671092
-0.0661431 -0.12673052 -0.09723531 -0.07199444 -0.27725634 -0.119541496 -0.14401124 0.022265524
0.0084254695 -0.033077266 -0.21588174 -0.14338526 -0.049864452 -0.011212791 -0.2957924 -0.18412293
0.09914343 -0.02149962 -0.19919501 -0.26912484 -0.11716562 -0.004052901 -0.1477793 -0.106059894
-0.039938964 -0.13211471 -0.15342419 -0.023436815 -0.20431423 -0.05865368 0.10363483 -0.17686146
0.0696588 0.10343167 -0.04469713 -0.023276793 -0.19286922 -0.028083637 -0.1206079 -0.07215596
-0.021560982 -0.26332003 -0.13935354 -0.104968786 -0.08918872 -0.040506884 -0.10570538 -0.18209316
-0.28081918 -0.15176792 -0.08665769 -0.13290893 -0.11556463 -0.12200488 -0.07937759 -0.10191758
-0.17586586 -0.04663008 -0.24475874 -0.15641932 -0.06561787 -0.09844586 0.0467953 -0.19062294
-0.07862138 -0.08121192 -0.097365715 0.1649708 0.088876665 -0.092906125 0.07043928 -0.014120068
0.15246549 0.02039593 -0.16025673 -0.19095269 0.15939164 0.09403106 -0.14314978 -0.16983782
0.054809656 0.15590893 0.20296675 0.07584412 -0.061949685 0.07916881 0.22528064 0.021962283
0.23032288 0.03891952 0.032234684 0.0096489955 0.1574225 0.04469654 -0.016286194 0.05792715
0.15002415 -0.048004143 -0.1212017 0.021526692 0.057814077 -0.05135509 -0.0066159493 0.1621985
0.081568286 -0.04922819 -0.09327219 0.035615295 0.20054947 0.023449697 -0.044410486 -0.16410364
-0.08118314 -0.018868428 0.119620174 -0.10755036 -0.0007250946 -0.066615894 0.05795754 -0.1444535
0.060063023 -0.009765593 -0.027702618 -0.098379076 -0.10176026 -0.017861944 -0.024009923 0.05156207
-0.15444194 -0.030589614 0.08650991 -0.08774002 -0.11017475 0.14134483 0.09899941 0.13528185
0.0415958 0.012607716 -0.0824747 -0.09599959 -0.03408317 -0.16785105 -0.18836175 -0.116117
-0.23144658 0.15896836 -0.033831827 0.0317835 -0.06300361 0.009343379 0.08057728 0.104768574
0.10864268 0.1475269 0.01768097 -0.04305393 -0.1441091 0.12433314 0.12699275 0.05845391
0.047396965 0.026757915 -0.021092571 -0.013825315 0.018434616 -0.04752567 0.06676861 -0.1146217
-0.065880224 -0.16350806 0.007618748 0.023344642 -0.01754357 -0.09667381 0.014579292 -0.1921846
-0.17061558 0.023032064 -0.0008111625 0.16446947 -0.0402095 -0.1232514 0.18782037 0.046477776
-0.0023851169 0.07815346 -0.0029906791 0.10956317 -0.038593892 -0.02681479 0.13571757 0.036210615
00000000: 7990 65be 76d7 d5bc b393 5dbe 4031 b0bd
00000010: bd80 acbd b8b5 1dbe 0ebd 643c 9c92 b1bd
00000020: b331 16be 5102 31be 1fc3 1ebc af6c 24be
00000030: 8f6a 423d 5cb7 95bd 2f8b 3cbd 68c7 84bd
00000040: 2ae9 163e 8c56 55bd f22c 643d 6173 b3bc
00000050: 19d1 a7bd 7e79 5bbd 4a1c 913b eb58 30be
00000060: d530 16bd 380d c3bc 5bf7 633d 8a78 6abd
00000070: acd6 8abd 24c3 00be 1747 a3bd f1f6 293d
00000080: 36f4 b7bc 43d2 02be 9040 bebd feeb 1abe
00000090: 2a84 6cbd b5f7 63be e85f 2ebe e13a a1bd
000000a0: eb8b 00be ad7f 763d c04d b0bd 6cd0 80bd
000000b0: aab3 0fbe dc52 d4bd 3aee 1c3d eaeb 37bc
000000c0: b348 0cbe 81da eabd f30c 5ebd f9af 22be
000000d0: 7899 c2bd d798 30be 0d06 683d fe84 12be
000000e0: c9f1 d6bc 0d5f 07be ac3f 5cbd 9b62 7bbe
000000f0: 06f9 61be c3dd cdbd 54b9 a93d 6010 c6bd
00000100: 0976 87bd a5c5 01be 4e23 c7bd d271 93bd
00000110: 8bf4 8dbe 2cd2 f4bd af77 13be 3066 b63c
00000120: fb0a 0a3c 077c 07bd 1a10 5dbe 96d3 12be
00000130: ab3e 4cbd dbb5 37bc 1a72 97be b98a 3cbe
00000140: b60b cb3d f91f b0bc c7f9 4bbe bbca 89be
00000150: 87f4 efbd 33ce 84bb 7553 17be ee35 d9bd
00000160: 0a97 23bd 1449 07be 3b1b 1dbe 90fe bfbc
00000170: c037 51be d73e 70bd 7f3e d43d 2c1b 35be
00000180: 46a9 8e3d fcd3 d33d 5614 37bd f9ae bebc
00000190: 827f 45be a80f e6bc 4601 f7bd 81c6 93bd
000001a0: a8a0 b0bc e2d1 86be b2b2 0ebe e0f9 d6bd
000001b0: 93a8 b6bd 8cea 25bd 107c d8bd a176 3abe
000001c0: 88c7 8fbe 0d69 1bbe 9679 b1bd 4719 08be
000001d0: 26ad ecbd b2dd f9bd b890 a2bd 2aba d0bd
000001e0: 2e16 34be 2fff 3ebd 09a2 7abe 632c 20be
000001f0: a962 86bd fc9d c9bd 6eac 3f3d a932 43be
00000200: 3f04 a1bd 6f52 a6bd ad67 c7bd 1bee 283e
00000210: f804 b63d 9145 bebd 7842 903d dc57 67bc
00000220: ea1f 1c3e 5e15 a73c 571a 24be 1a89 43be
00000230: 9037 233e 5b93 c03d db95 12be f7e9 2dbe
00000240: 1780 603d 97a6 1f3e 84d6 4f3e 2954 9b3d
00000250: f4be 7dbd 4223 a23d f8af 663e 3fea b33c
00000260: c3d9 6b3e 136a 1f3d 8408 043d d216 1e3c
00000270: 5d33 213e b813 373d a06a 85bc 0545 6d3d
00000280: ee9f 193e fe9f 44bd 9938 f8bd bf58 b03c
00000290: 74ce 6c3d b759 52bd 9bca d8bb 5d17 263e
000002a0: 460d a73d 80a3 49bd 7d05 bfbd 58e1 113d
000002b0: d75c 4d3e 9419 c03c c5e7 35bd c90a 28be
000002c0: 5943 a6bd f691 9abc 6cfb f43d 5d43 dcbd
000002d0: 4614 3eba ea6d 88bd e364 6d3d 9eeb 13be
000002e0: a504 763d deff 1fbc 9af0 e2bc f87a c9bd
000002f0: af67 d0bd 3653 92bc 75b0 c4bc c032 533d
00000300: 0726 1ebe 1297 fabc 1c2c b13d 0ab1 b3bd
00000310: 4da3 e1bd b3bc 103e 34c0 ca3d 5387 0a3e
00000320: 5c60 2a3d 9890 4e3c 7fe8 a8bd 6f9b c4bd
00000330: cb9a 0bbd 25e1 2bbe e7e1 40be c0ce edbd
00000340: 5500 6dbe 9ac8 223e 3e93 0abd 6a2f 023d
00000350: 0908 81bd f914 193c b305 a53d e890 d63d
00000360: 0e80 de3d 4b11 173e aed7 903c 5159 30bd
00000370: 5691 13be 60a2 fe3d 630a 023e 5e6d 6f3d
00000380: 5223 423d 6a33 db3c 54ca acbc 9383 62bc
00000390: 3104 973c 47aa 42bd fbbd 883d c8be eabd
000003a0: 36ec 86bd a86e 27be b1a6 f93b 433d bf3c
000003b0: 88b7 8fbc ebfc c5bd fcdd 6e3c 0acc 44be
000003c0: dab5 2ebe bdad bc3c 32a4 54ba af6a 283e
000003d0: b7b2 24bd 3b6b fcbd fc53 403e 7b5f 3e3d
000003e0: 9f4f 1cbb ec0e a03d 45ff 43bb a862 e03d
000003f0: a114 1ebd b1aa dbbc 8cf9 0a3e 9551 143d

lstm.bias_hh_l0 f4 [512]
-0.10768106 -0.0021559924 -0.22292684 -0.13183774 -0.10487663 -0.19234896 -0.10159185 -0.05482888
-0.060879953 -0.15774329 -0.12444668 -0.18215579 0.03189135 -0.15490264 -0.21379097 -0.1389857
-0.0021992484 -0.09147946 0.08496682 -0.08117739 -0.109617464 -0.101136304 -0.1398209 -0.07118034
-0.13016246 -0.098766096 0.024014445 -0.007056838 -0.12376998 -0.07596571 -0.08683607 -0.071977325
-0.03269056 -0.16493946 -0.091348216 -0.10344764 -0.13009483 -0.10801376 -0.15735166 -0.04445164
-0.13097075 -0.035708647 -0.14912142 -0.02968721 0.0091326395 -0.004380412 -0.111673236 -0.13331603
-0.1344648 -0.07352219 0.053445786 -0.12592399 -0.10366763 -0.18236338 -0.03960447 -0.17701787
0.06689502 -0.07520614 -0.1272885 -0.14652254 -0.21598154 -0.1324918 -0.071958825 -0.06915184
-0.0061457893 -0.25626945 -0.2192018 -0.14050741 -0.11620511 -0.01185562 -0.122480884 0.093369566
0.06868636 -0.0052541764 -0.10899013 -0.03946298 -0.07842443 -0.07216389 -0.2957015 -0.14238344
0.1181062 -0.108617075 -0.15557837 -0.15621291 -0.09108383 -0.16342002 -0.0116346255 -0.031959657
-0.117787115 -0.13737492 -0.20702468 -0.060985945 -0.07629454 0.019587943 0.009225173 -0.10533821
0.07916066 -0.013050027 -0.09611653 -0.08112468 -0.21546887 -0.036017668 -0.09295682 -0.04774607
-0.011549502 -0.14302243 -0.05538087 -0.0272868 -0.068939954 -0.086186096 -0.17814355 -0.03727117
-0.28721166 -0.16179936 -0.11789368 -0.075962245 -0.17875455 -0.13610989 -0.04713339 -0.10197823
-0.09952718 -0.074088596 -0.24429572 -0.19263794 -0.10250267 -0.17194586 0.0020867197 -0.19596724
-0.12035647 0.06332902 -0.057653073 0.10071268 0.09434437 -0.19284354 0.047045816 0.042064052
0.12986875 0.15215828 -0.044532545 -0.14526045 0.22087145 0.0019299117 -0.011377531 -0.0779281
0.066612564 0.076541595 0.17001161 0.021804292 0.108325705 0.02504552 0.14226349 0.028711004
0.25992197 -0.025399117 0.044184472 0.006647547 0.2632667 0.030761778 0.011263962 -0.018188203
0.14055274 -0.03964672 0.023194687 -0.123804085 0.114562795 -0.02093674 0.081845745 0.12679005
0.06480186 0.11549287 -0.03510273 0.009047829 0.18937579 0.116575256 0.099514715 -0.12577452
0.033249382 0.06832456 0.103466034 -0.055818416 -0.057573363 -0.14448707 0.08647279 -0.14059901
0.11914723 -0.030872986 -0.06891736 -0.03702359 -0.12486981 -0.087383755 0.0058326772 -0.00976451
-0.086933486 -0.13705672 0.09990716 0.016697226 0.0010373364 0.11725369 0.15014231 0.023888884
0.21385227 0.1403275 -0.033546645 -0.014237698 -0.055045262 -0.11179228 -0.08023719 -0.039731022
-0.15542716 0.0948658 -0.020697873 -0.0007884169 -0.04398403 -0.004635442 0.08465879 0.03677959
0.0543423 0.20214356 -0.10570618 -0.08827538 -0.14871463 0.06295938 0.1938521 0.088953495
-0.086487 -0.0077148154 0.063495986 0.122034065 -0.102806464 -0.032229736 -0.04163143 -0.18669556
0.0005592003 -0.1372474 0.031905215 -0.07620072 0.11310334 -0.12139721 0.06909185 -0.13903935
-0.20666265 -0.017886087 0.111919455 0.18758242 -0.040052798 -0.17471647 0.22510833 0.014697716
-0.009302255 -0.019313987 0.034073576 0.09535182 -0.062489387 -0.035117306 0.20823121 0.045269545
00000000: e387 dcbd 8d4b 0dbb ef46 64be 7900 07be
00000010: 8fc9 d6bd 20f7 44be 630f d0bd 3f94 60bd
00000020: 425d 79bd 7587 21be e7dd febd 0c87 3abe
00000030: 81a0 023d cc9e 1ebe 05ec 5abe 4452 0ebe
00000040: 4421 10bb 9559 bbbd 1603 ae3d 5540 a6bd
00000050: 1f7f e0bd 8d20 cfbd 362d 0fbe 00c7 91bd
00000060: 4f49 05be e145 cabd f1b9 c43c 0c3d e7bb
00000070: 1e7b fdbd e993 9bbd 1cd7 b1bd d968 93bd
00000080: 89e6 05bd e4e5 28be c614 bbbd 5bdc d3bd
00000090: 9437 05be 5136 ddbd cb20 21be ec12 36bd
000000a0: 321d 06be 3b43 12bd 49b3 18be 9832 f3bc
000000b0: 11a1 153c 8f89 8fbb f0b4 e4bd ff83 08be
000000c0: 24b1 09be cd92 96bd f8e9 5a3d 38f2 00be
000000d0: b24f d4bd 77bd 3abe 4c38 22bd 2c44 35be
000000e0: 4200 893d ad05 9abd eb57 02be 010a 16be
000000f0: 442a 5dbe eeab 07be 265f 93bd 7b9f 8dbd
00000100: 9e62 c9bb c035 83be 7076 60be 2de1 0fbe
00000110: f2fc edbd 133e 42bc 42d7 fabd 8b38 bf3d
00000120: 6fab 8c3d 3a2b acbb 3836 dfbd efa3 21bd
00000130: fd9c a0bd a9ca 93bd 3066 97be f7cc 11be
00000140: aae1 f13d a172 debd f04f 1fbe 47f6 1fbe
00000150: 298a babd 9457 27be 289f 3ebc 21e8 02bd
00000160: 5f3a f1bd 03ac 0cbe 47fe 53be 66cc 79bd
00000170: 5040 9cbd e576 a03c 2e25 173c 8fbb d7bd
00000180: fc1e a23d c8cf 55bc bed8 c4bd b224 a6bd
00000190: dfa3 5cbe 4387 13bd 2560 bebd 6291 43bd
000001a0: 1f3a 3dbc 7974 12be 0dd7 62bd 9188 dfbc
000001b0: 6430 8dbd 5682 b0bd 436b 36be a8a9 18bd
000001c0: 680d 93be bbae 25be 3e72 f1bd 1892 9bbd
000001d0: 6f0b 37be 6460 0bbe f10e 41bd f6d9 d0bd
000001e0: e8d4 cbbd c3bb 97bd a828 7abe e142 45be
000001f0: ebec d1bd 9312 30be 59c1 083b a3ab 48be
00000200: 747d f6bd a5b2 813d a125 6cbd 7342 ce3d
00000210: 9f37 c13d c778 45be 1db3 403d 5b4b 2c3d
00000220: 50fc 043e 61cf 1b3e c267 36bd 28bf 14be
00000230: 202c 623e 17f5 fc3a d368 3abc c598 9fbd
00000240: 2b6c 883d d7c1 9c3d 8617 2e3e ea9e b23c
00000250: ded9 dd3d 432c cd3c 85ad 113e 5733 eb3c
00000260: 7e14 853e cf11 d0bc c7fa 343d aad3 d93b
00000270: e5ca 863e 2000 fc3c 7b8c 383c 6dff 94bc
00000280: 0fed 0f3e 9964 22bd c902 be3c ff8c fdbd
00000290: e69f ea3d 8783 abbc be9e a73d 40d5 013e
000002a0: d6b6 843d 8787 ec3d e1c7 0fbd 583d 143c
000002b0: baeb 413e 02bf ee3d 5fce cb3d 09cb 00be
000002c0: 8130 083d bfed 8b3d 00e6 d33d daa1 64bd
000002d0: 0cd2 6bbd 6bf4 13be a518 b13d 30f9 0fbe
000002e0: 7703 f43d 58e9 fcbc 8b24 8dbd 0ca6 17bd
000002f0: bebb ffbd 41f6 b2bd 0b20 bf3b 53fb 1fbc
00000300: 2f0a b2bd 9958 0cbe 209c cc3d 9fc8 883c
00000310: 3cf7 873a b422 f03d e8be 193e 9fb2 c33c
00000320: 17fc 5a3e 03b2 0f3e 3568 09bd 3c45 69bc
00000330: 2477 61bd 5af3 e4bd 6553 a4bd ffbc 22bd
00000340: 4c28 1fbe 0049 c23d 968e a9bc c3ad 4eba
00000350: 9928 34bd e8e4 97bb 9661 ad3d 32a6 163d
00000360: 0896 5e3d b9fe 4e3e 7b7c d8bd b9c9 b4bd
00000370: a648 18be d9f0 803d 2a81 463e 402d b63d
00000380: 1920 b1bd 90cc fcbb 2f0a 823d ffec f93d
00000390: 328c d2bd 5403 04bd b885 2abd 1f2d 3fbe
000003a0: 4c97 123a 958a 0cbe 0baf 023d 200f 9cbd
000003b0: b9a2 e73d 1a9f f8bd 0780 8d3d 5560 0ebe
000003c0: 609f 53be d885 92bc 0736 e53d 9b15 403e
000003d0: 670e 24bd e0e8 32be cc82 663e b0ce 703c
000003e0: 7c68 18bc 5e38 9ebc bc90 0b3d d147 c33d
000003f0: dff4 7fbd 2ad7 0fbd 903a 553e 8f6c 393d

fc.weight f4 [3, 128]
-0.034902815 0.15510738 -0.061851718 0.06050551 -0.021110475 -0.13535085 -0.092361495 0.10565876
0.17351484 -0.1666333 -0.0041538198 -0.042915158 0.046867166 -0.09259069 -0.026036253 -0.0029064023
0.16769047 -0.022669638 0.05322005 0.023284707 0.07932668 0.2253938 0.16604106 -0.006561772
-0.090013415 -0.122512445 0.26236445 0.07889668 0.00266356 -0.030031787 -0.08832083 -0.12609914
0.017005656 0.0021979224 0.017940223 -0.014018639 -0.11694995 0.06349623 0.12145377 0.09616509
0.14071144 -0.08089733 0.1059977 0.02664293 0.08212958 0.11198399 -0.034073733 0.013571286
-0.10158889 0.060377788 0.007688818 -0.08638768 0.12719677 -0.14118035 -0.023165336 0.06808977
0.1149607 -0.05189785 0.09921761 -0.0711801 -0.0490652 -0.036944453 0.1546081 -0.026380166
-0.19265687 -0.063819684 -0.068170175 0.039999373 0.001906972 0.12116132 -0.06790077 0.1441818
0.012889468 0.13104749 -0.030479053 0.013608693 -0.057094846 -0.014886876 -0.008232392 0.058524497
0.06696248 -0.119139515 -0.011638759 -0.06214689 0.08059129 -0.026931237 -0.038493272 -0.0075776395
-0.071987554 -0.12122689 -0.04011997 0.010636708 -0.05191189 0.030297043 0.21415913 -0.12295184
-0.17152318 -0.05153544 0.053686447 0.0023907817 -0.047130384 -0.068656005 0.08428491 0.0568638
0.0015479553 0.026699685 -0.081881054 -0.1183874 0.13935167 0.07771216 -0.032445718 0.05130126
0.03597195 0.038580798 -0.046411026 -0.024703305 -0.082230926 0.056055628 0.042727657 0.016622476
-0.033641588 0.15892124 -0.011485637 0.08405349 0.069675915 -0.07180034 -0.0657536 0.07777973
0.035133928 -0.05622297 0.049193423 -0.011369254 0.05904168 0.16280732 0.12968913 -0.044696163
-0.12126999 0.15394084 0.040550735 -0.10299019 -0.06420077 0.18703438 -0.025959825 0.11023818
-0.11256136 0.050168052 -0.022064105 0.123764694 -0.04965677 -0.095220104 -0.07768192 0.034782115
0.10436892 0.19255286 -0.24870503 -0.08897712 0.032793723 -0.053968467 0.10638835 0.1646078
-0.006242587 -0.08689547 -0.025935099 -0.04023677 0.071997344 -0.0711162 -0.16560008 -0.081615955
-0.10349915 -0.017820593 -0.09836132 -0.028834846 -0.094832 -0.09255215 -0.044807978 -0.05429862
-0.00028348292 -0.05098021 -0.02478028 0.00061642256 -0.07400723 0.14742012 0.015788628 -0.15689248
-0.10831675 0.03134048 -0.03870694 0.045183316 -0.09858764 0.09451536 -0.14088139 0.014167629
0.06875102 -0.02192845 0.12832725 -0.05401723 0.032981243 -0.1567926 0.09105427 -0.13025552
-0.027267637 -0.10057254 0.021806877 -0.14965813 0.02005368 -0.058103904 0.07888556 -0.1608287
0.10650493 0.1527988 0.057944898 0.076359466 -0.017795827 0.036228836 0.14990132 0.02322235
0.04945544 0.15942225 0.026999071 -0.07717865 -0.0060527585 -0.12724212 -0.20251963 0.11168454
0.16140035 0.08968539 -0.04800639 0.051395398 0.017289525 0.16774681 -0.09985544 0.04258532
-0.04525686 -0.08812277 0.07792647 0.08642417 -0.13997616 -0.018972615 0.009168182 0.0023979691
-0.09160186 -0.094356835 0.03296701 0.082719535 0.10650141 0.018523706 -0.051701933 -0.097670406
-0.0013078589 -0.119812675 -0.04790852 -0.14063483 0.036316782 0.113657616 0.06535027 -0.009043431
00000000: 41f6 0ebd 78d4 1e3e 3a58 7dbd a0d4 773d
00000010: e0ef acbc 6a99 0abe 0628 bdbd 9f63 d83d
00000020: e0ad 313e eba1 2abe c41c 88bb cec7 2fbd
00000030: c9f7 3f3d 30a0 bdbd fb49 d5bc 5779 3ebb
00000040: 0db7 2b3e adb5 b9bc 44fd 593d 92bf be3c
00000050: 0776 a23d a2cd 663e ab06 2a3e 2204 d7bb
00000060: f458 b8bd cee7 fabd a254 863e 9594 a13d
00000070: 1f8f 2e3b 3905 f6bc 8de1 b4bd 2220 01be
00000080: 724f 8b3c 050b 103b 60f7 923c 6fae 65bc
00000090: 7583 efbd 500a 823d c1bc f83d 34f2 c43d
000000a0: a916 103e 80ad a5bd 5215 d93d 4642 da3c
000000b0: 8e33 a83d dd57 e53d e690 0bbd 195a 5e3c
000000c0: d60d d0bd b34e 773d 7bf2 fb3b 06ec b0bd
000000d0: df3f 023e 9591 10be 3bc5 bdbc a672 8b3d
000000e0: 8470 eb3d d792 54bd 9a32 cb3d dfc6 91bd
000000f0: 97f8 48bd 1153 17bd 9651 1e3e 381b d8bc
00000100: d847 45be e5b3 82bd ce9c 8bbd 62d6 233d
00000110: 5df3 f93a 6d23 f83d 8f0f 8bbd 65a4 133e
00000120: 592e 533c 5031 063e 35af f9bc fff6 5e3c
00000130: 49dc 69bd 15e8 73bc 28e1 06bc 62b7 6f3d
00000140: a023 893d 6bff f3bd 7eb0 3ebc bd8d 7ebd
00000150: 0c0d a53d e69e dcbc 1fab 1dbd d94d f8bb
00000160: 366e 93bd ce45 f8bd d654 24bd 9645 2e3c
00000170: 90a1 54bd 8131 f83c 884c 5b3e 2dce fbbd
00000180: c6a3 2fbe d316 53bd 52e6 5b3d a9ae 1c3b
00000190: ca0b 41bd 859b 8cbd 919d ac3d 04ea 683d
000001a0: c3e4 ca3a 4cb9 da3c 41b1 a7bd 1875 f2bd
000001b0: 34b2 0e3e 8e27 9f3d cde5 04bd 4521 523d
000001c0: 5357 133d e606 1e3d 7d19 3ebd 965e cabc
000001d0: b068 a8bd 969a 653d 3203 2f3d dc2b 883c
000001e0: c3cb 09bd 40bc 223e 412e 3cbc 3c24 ac3d
000001f0: 3fb2 8e3d 0f0c 93bd d3a9 86bd fb4a 9f3d
00000200: 98e8 0f3d 0f4a 66bd 0b7f 493d 1c46 3abc
00000210: b0d5 713d f6b6 263e 3acd 043e 5313 37bd
00000220: 675c f8bd aba2 1d3e 8718 263d 85ec d2bd
00000230: b17b 83bd f185 3f3e b3a9 d4bc 8ec4 e13d
00000240: 9286 e6bd 047d 4d3d c8bf b4bc 5878 fd3d
00000250: e664 4bbd c202 c3bd b317 9fbd b177 0e3d
00000260: 5fbf d53d 942c 453e 88ac 7ebe a339 b6bd
00000270: b652 063d 0a0e 5dbd 23e2 d93d f28e 283e
00000280: 9e8e ccbb 41f6 b1bd d875 d4bc 50cf 24bd
00000290: 5873 933d 5fa5 91bd 1193 29be 4426 a7bd
000002a0: 5df7 d3bd 7efc 91bc a971 c9bd 0e37 ecbc
000002b0: 4837 c2bd fb8b bdbd 9288 37bd 3b68 5ebd
000002c0: 6fa0 94b9 a0d0 50bd 0400 cbbc 6b97 213a
000002d0: 1a91 97bd 4df5 163e 2757 813c 6ca8 20be
000002e0: 2cd5 ddbd e05e 003d 2b8b 1ebd 2412 393d
000002f0: 51e8 c9bd 4591 c13d 3643 10be 581f 683c
00000300: 56cd 8c3d 4ba3 b3bc 3868 033e 2c41 5dbd
00000310: 5717 073d 3d8e 20be a97a ba3d b461 05be
00000320: 6160 dfbc faf8 cdbd 56a4 b23c fb3f 19be
00000330: 9d47 a43c 5cfe 6dbd c18e a13d 47b0 24be
00000340: 421f da3d 4a77 1c3e a157 6d3d 5a62 9c3d
00000350: 8ec8 91bc b064 143d bb7f 193e cc3c be3c
00000360: ca91 4a3d 963f 233e 282d dd3c d70f 9ebd
00000370: 3856 c6bb c24b 02be 4e61 4fbe ddba e43d
00000380: 2246 253e f9ac b73d 59a2 44bd fb83 523d
00000390: c3a2 8d3c d2c5 2b3e 0281 ccbd f26d 2e3d
000003a0: 425f 39bd b679 b4bd ea97 9f3d 28ff b03d
000003b0: e955 0fbe 756c 9bbc 2436 163c 3f27 1d3b
000003c0: c299 bbbd 283e c1bd 6a08 073d dc68 a93d
000003d0: 691d da3d 07bf 973c 68c5 53bd 6c07 c8bd
000003e0: 766c abba 5960 f5bd b93b 44bd 9402 10be
000003f0: e8c0 143d 53c5 e83d 5dd6 853d e62a 14bc

fc.bias f4 [3]
0.17152289 -0.14184368 0.17062788
00000000: b2a3 2f3e 783f 11be 13b9 2e3e
