LSTM_best.pth (torch, 401331 bytes, 6 tensors)

lstm.weight_ih_l0 f4 [512, 64]
0	0x3d0104be	0.031498663
1	0x3cdf4271	0.027253361
2	0x3ddd95ae	0.10819565
3	0xb9859d82	-0.0002548509
4	0x3dbba954	0.09163156
5	0xbcbc45fe	-0.022982594
6	0x3d85530b	0.0650998
7	0xbe2f95b5	-0.17146952
8	0x3d8b3d93	0.06798854
9	0x3c14e6e8	0.009088255
10	0x3e12fe7e	0.14354894
11	0xbd160ade	-0.036631458
12	0x3d8a5ee1	0.06756378
13	0x3db2f81c	0.08738729
14	0xbd8c4a7a	-0.06850143
15	0xbe27bdc8	-0.1638099
16	0xbdf0b792	-0.11753763
17	0x3e92fe8a	0.28709823
18	0xbe24ea6e	-0.16105053
19	0xbc6e7dbd	-0.0145563455
20	0x3e121cd7	0.14268814
21	0xbdbabca9	-0.09118015
22	0x3d0085e6	0.031377696
23	0x3b052bd4	0.0020320313
24	0xbe0505a0	-0.12990427
25	0xbd49aeba	-0.049238898
26	0xbd95162f	-0.07279622
27	0x3e0d86a1	0.13820888
28	0x3cc136f2	0.02358577
29	0x3af2ad8c	0.0018514856
30	0x3d193991	0.037408415
31	0xbdc39da0	-0.09551549
32	0xbdb66965	-0.08906821
33	0xbc3863a7	-0.011254228
34	0xbe3f60ee	-0.1868932
35	0x3dab3f79	0.08361716
36	0x3c8446a3	0.016146963
37	0x3c7b5d54	0.015342075
38	0x3da5034f	0.08057272
39	0x3da67c1e	0.08129142
40	0x3d704314	0.05865772
41	0xbd5f1d7f	-0.05447149
42	0xbdc92b37	-0.09822696
43	0x3d60d05a	0.0548862
44	0x3c961ff7	0.018325789
45	0xbe36c61d	-0.17849012
46	0xbdb128e0	-0.086503744
47	0x3dc78605	0.09742359
48	0xbca087f8	-0.019596085
49	0x3d03cdc7	0.032178666
50	0xbda0bb8e	-0.07848273
51	0xbd6a2f8d	-0.057174254
52	0xbc17afed	-0.009258253
53	0xbd8eff21	-0.06982256
54	0x3db81328	0.08988029
55	0xbdd17b96	-0.1022865
56	0xbd08acfe	-0.033368103
57	0xbd9c05ff	-0.07618331
58	0xbcea155c	-0.028574638
59	0x3dd3343e	0.10312699
60	0xbe453cff	-0.1926155
61	0x3d665e65	0.056242365
62	0xbe7df3a8	-0.24799979
63	0xbd2ade5b	-0.04171596
64	0xbc4e23e1	-0.012581796
65	0xbdbb27d8	-0.09138459
66	0xbe0afbb8	-0.13572586
67	0xbbe742e9	-0.007057537
68	0xbdc70872	-0.09718408
69	0x3c9d5f4e	0.019210484
70	0xbc86bd5a	-0.016447712
71	0xbd9cee4f	-0.07662641
72	0xbdf708bc	-0.12062213
73	0x3dc45b09	0.09587676
74	0xbe06b0a0	-0.13153315
75	0xbe03180e	-0.12802145
76	0x3da89494	0.08231464
77	0x3ce661bd	0.028122777
78	0x3cb208df	0.021732746
79	0x3c567980	0.013090491
80	0x3ddc41a7	0.1075471
81	0xbde47d07	-0.111566596
82	0x3ccd00c4	0.02502478
83	0x3dea9745	0.114546336
84	0x3ca4e44e	0.020128395
85	0xbde5c0fe	-0.11218451
86	0x3cd9d197	0.026589198
87	0x3d1eca92	0.038767405
88	0xbc9e5085	-0.019325504
89	0x3c1e87b5	0.00967591
90	0x3c33ca7d	0.01097357
91	0xbd3526aa	-0.044226326
92	0xbcd56ba4	-0.026052304
93	0x3e88fba5	0.2675449
94	0x3d04a3b7	0.032382693
95	0xbcee0b67	-0.029058171
96	0xbe43d30f	-0.19123481
97	0xbc00f2e5	-0.007870411
98	0x3e1aea19	0.15128364
99	0xbe4fd224	-0.20295006
100	0xbd1c886f	-0.03821605
101	0x3d68dad1	0.056849305
102	0x3df5bc7f	0.119988434
103	0xbd0da1fa	-0.0345783
104	0x3e0e3c4f	0.13890193
105	0x3d3c6a4c	0.04599981
106	0x3e337879	0.17526425
107	0x3dab2c79	0.08358092
108	0x3e4e90b3	0.20172386
109	0xba8592c4	-0.0010190834
110	0x3ded52bd	0.11588047
111	0x3d5d6f1c	0.05406104
112	0x3dabdbdd	0.08391545
113	0x3df30365	0.11865882
114	0x3dcdad2c	0.100427955
115	0x3c01b139	0.007915788
116	0xbd85b44f	-0.06528532
117	0x3d3ad4f2	0.045613237
118	0x3c8f09cb	0.017460724
119	0x3d6bac38	0.057537287
120	0x3d87a12f	0.0662254
121	0x3ddaeb43	0.10689404
122	0x3d8c3c3c	0.06847426
123	0x3dde79ac	0.10863051
124	0x3d0510b5	0.032486636
125	0xbe1a60b2	-0.15075949
126	0x3db609b7	0.08888572
127	0x3deb91dc	0.1150243
128	0x3e1bbfb8	0.15209854
129	0x3e0c322b	0.13691013
130	0xbd7f7eb6	-0.0623767
131	0xbc8b5713	-0.017009294
132	0xbd58b50c	-0.052907035
133	0x3e8da7b3	0.27667007
134	0x3d1bd661	0.038046245
135	0xbe4dad62	-0.20085672
136	0x3e018d59	0.12651576
137	0x3db50b5c	0.08840057
138	0x3d190d6e	0.037366323
139	0x3d12d9f7	0.0358524
140	0x3db4d7c6	0.08830218
141	0x3e400e51	0.18755461
142	0x3d985aec	0.07439217
143	0xbc67ca99	-0.014147424
144	0x3dd11608	0.1020928
145	0xbcce2af5	-0.025166968
146	0xbdc4057b	-0.09571358
147	0xbd526a7a	-0.051371075
148	0x3e6305f7	0.22170244
149	0xbb83b1a9	-0.0040189815
150	0x3e0c8a06	0.13724527
151	0x3e2b87cb	0.1675102
152	0xbc1e5bb0	-0.009665415
153	0xbca035f9	-0.019556986
154	0x3e0436d1	0.12911536
155	0x3db50b4d	0.08840046
156	0x3cfc2d3e	0.030783292
157	0x3d841484	0.064492255
158	0x3ad9bc75	0.0016611951
159	0x3db2363d	0.087017514
160	0xbdb9b1bf	-0.090671055
161	0xbda3eca8	-0.08004123
162	0x3d8e07ba	0.069350675
163	0xbe302ae0	-0.17203856
164	0xbe347d3d	-0.176259
165	0x3e04cbde	0.12968394
166	0x3eb89229	0.3604901
167	0xbe1b683d	-0.15176482
168	0xbd231364	-0.039813414
169	0x3e0488ef	0.12942861
170	0x3e093e4e	0.13402674
171	0x3e375af5	0.17905791
172	0xbe41ca92	-0.1892493
173	0xbd2cbdc2	-0.042173155
174	0x3dfe6585	0.12421707
175	0x3b91fa1b	0.0044548637
176	0xbe569439	-0.2095498
177	0x3e079be3	0.1324306
178	0xbc94a227	-0.018143727
179	0xbe17a5cd	-0.14809342
180	0xbe082cd3	-0.13298349
181	0xbd71ed29	-0.059064064
182	0xbd7c82a4	-0.061648026
183	0xbde73af1	-0.11290539
184	0xbe7edbf0	-0.24888587
185	0x3d63ea40	0.05564332
186	0x3d763420	0.060108304
187	0xbd832f3f	-0.06405496
188	0xbd9268e6	-0.07148914
189	0xbdc2e6a6	-0.09516649
190	0xbd4c8df3	-0.04994006
191	0xbe096393	-0.13416891
192	0x3d104aa5	0.035227437
193	0x3d9811d8	0.074252784
194	0x3d292246	0.04129245
195	0x3a155645	0.0005696754
196	0x3e2ed46a	0.17073217
197	0xbd73a924	-0.059487477
198	0xbd9b107a	-0.07571502
199	0xbd45c592	-0.04828412
200	0x3c9a05fc	0.018801682
201	0x3d1fb452	0.038990326
202	0xbd6577f5	-0.056022603
203	0x3e0b9185	0.1362973
204	0x3d7efa53	0.062250447
205	0x3e0ef2b1	0.13959767
206	0x3e0500f4	0.12988645
207	0x3d77db8f	0.06051212
208	0x3ceb1234	0.028695203
209	0x3dcef977	0.101061754
210	0x3ceb3fea	0.028717
211	0x3e1255dc	0.14290565
212	0x3e80bb64	0.25142968
213	0x3cf57652	0.029963646
214	0x3d820928	0.06349403
215	0x3ddceffb	0.1078796
216	0x3e086983	0.133215
217	0xbd94b2a1	-0.07260633
218	0xbda02d21	-0.07821108
219	0x3e3904c3	0.18068223
220	0x3d97dbda	0.0741498
221	0xbd866827	-0.06562834
222	0xbd118c89	-0.035534415
223	0x3d85f064	0.065399915
224	0xbd083441	-0.03325296
225	0xbdaf2ce0	-0.08553481
226	0xbdf25894	-0.11833301
227	0x3d9f2ba8	0.07771999
228	0xbd1086f8	-0.035284966
229	0x3bb8184b	0.0056181303
230	0x3dd33efb	0.10314747
231	0xbc274e32	-0.010211514
232	0x3cd8a2ee	0.026444878
233	0xbd502102	-0.05081273
234	0xbcaa1a20	-0.02076441
235	0x3e144e4b	0.14482991
236	0xbdb2735d	-0.0871341
237	0x3c08584b	0.008321832
238	0x3d4de621	0.050268296
239	0x3c4a320b	0.012341033
240	0x3d201686	0.03908398
241	0x3c542c79	0.012950056
242	0x3dddf60c	0.10837945
243	0xbd1f2df7	-0.038862195
244	0x3b403366	0.002932751
245	0x3e1a5872	0.15072802
246	0x3ca511e9	0.020150142
247	0x3dea64cf	0.11445009
248	0x3d5bf238	0.053697795
249	0x3dfa17fc	0.12211606
250	0x3d94ecd5	0.072717346
251	0x3e07f1f4	0.13275892
252	0x3d2d1f2b	0.042266052
253	0x3de6ba18	0.11265963
254	0xbc8e6a59	-0.017384695
255	0xbd8d07ba	-0.06886239

lstm.weight_hh_l0 f4 [512, 128]
0	0xbdc64513	-0.096811436
1	0xbe81a7e3	-0.253234
2	0xbd43d019	-0.04780588
3	0x3cdea47b	0.02717804
4	0xbda74ce4	-0.081689626
5	0xbe17fe7d	-0.14843173
6	0x3eb25403	0.3482972
7	0xbde1419a	-0.10998841
8	0x3d2a5b08	0.04159072
9	0xbdd760f7	-0.105165415
10	0x3d32ada6	0.043622635
11	0xbc729091	-0.014804975
12	0x3b89f84a	0.0042105066
13	0x3e0b8711	0.13625742
14	0xbd239f99	-0.039947126
15	0xbd9fde44	-0.07806066
16	0x3e52422b	0.20533054
17	0xbdd10056	-0.10205142
18	0xbe6f0380	-0.23341179
19	0xbd87567d	-0.06608293
20	0x3d20390d	0.039116908
21	0x3dd9642d	0.1061481
22	0x3dd54693	0.104138516
23	0x3e05e383	0.1307507
24	0xbd121925	-0.03566851
25	0xbcd47326	-0.025933813
26	0xbe3a4610	-0.18190789
27	0xbe4c803a	-0.1997079
28	0xbcc65844	-0.02421201
29	0x3db743c0	0.08948469
30	0x3dbd6444	0.0924764
31	0x3d1fe2c2	0.039034612
32	0xbd98b2dc	-0.0745599
33	0xbd137be1	-0.036006812
34	0x3e30e3a9	0.17274345
35	0x3e5be8b7	0.21475492
36	0xbdc3e343	-0.09564831
37	0xbdb7a864	-0.08967665
38	0xbd942487	-0.072335295
39	0xbe14a413	-0.14515714
40	0xbd11e1aa	-0.0356156
41	0xbdc16090	-0.09442246
42	0xbe1bf188	-0.15228856
43	0x3dddcbc8	0.10829884
44	0xbd81144b	-0.06302699
45	0x3d187bda	0.03722749
46	0xbde7623a	-0.11298032
47	0x3e23ffa5	0.1601549
48	0xbd05adfe	-0.032636635
49	0xbdf70af3	-0.12062635
50	0x3c321149	0.010868379
51	0xbcb298b2	-0.021801326
52	0xbe278b5e	-0.16361758
53	0xbcd73941	-0.026272418
54	0x3d8e54fb	0.069498025
55	0x3de1ed34	0.11031571
56	0xbe52b352	-0.20576218
57	0x3d79fc33	0.06103153
58	0xbdb0ac8b	-0.0862666
59	0xbdd9b5c4	-0.10630372
60	0x3b9388eb	0.004502406
61	0xbe0e07f4	-0.13870221
62	0xbe175be7	-0.14781152
63	0x3e2f3d94	0.17113334
64	0x3dfc46ea	0.12318213
65	0xbd57b22b	-0.05266015
66	0x3d0b4a7d	0.034006584
67	0xbcbc0475	-0.022951344
68	0x3d90921f	0.070591204
69	0xbc73e3de	-0.014885871
70	0xbe654a21	-0.22391559
71	0xbc931836	-0.01795588
72	0x3d1b35e3	0.037893187
73	0x3e60fd41	0.21971609
74	0xbc85cf3e	-0.016334172
75	0x3eb1d553	0.34733066
76	0xbda8a8b4	-0.082353026
77	0x3e3504ea	0.17677656
78	0xbd00cf1c	-0.031447515
79	0xbe4316a5	-0.19051607
80	0x3dcd670e	0.10029422
81	0xbda51972	-0.08061494
82	0x3e510751	0.20412947
83	0xbe3b6bf1	-0.18302895
84	0xbdc16a76	-0.09444134
85	0xbc9de3df	-0.019273696
86	0xbd3471d2	-0.04405386
87	0xbd24ee8c	-0.04026656
88	0xbd2320e5	-0.039826293
89	0xbd9d8afa	-0.07692523
90	0xbd010209	-0.03149608
91	0xbe045c39	-0.12925805
92	0x3d68f6a4	0.05687584
93	0x3d612602	0.054967888
94	0x3d00ab4b	0.031413358
95	0xbd849e0f	-0.0647546
96	0x3deae8b4	0.11470166
97	0x3e2f54b6	0.17122158
98	0xbd80840e	-0.062751874
99	0x3cb15fe8	0.021652177
100	0x3e53ae89	0.20672049
101	0x3c1abee3	0.009444925
102	0x3e00e28b	0.1258642
103	0xbe4dba31	-0.20090558
104	0xbdce2c2d	-0.100670196
105	0xbc702b6d	-0.014658791
106	0x3d88d9b2	0.06682147
107	0x3d2a6e62	0.041609176
108	0xbd8bd699	-0.06828041
109	0xbda3d98d	-0.08000479
110	0xbe04b9ec	-0.12961549
111	0xbd097ff6	-0.0335693
112	0x3e3d424d	0.18482323
113	0xbd204307	-0.039126422
114	0xbcc35ce2	-0.023848
115	0x3ae267ec	0.0017273403
116	0xbd5b75d2	-0.05357916
117	0xbd7ac686	-0.061224483
118	0xbe2c1941	-0.16806509
119	0x3e5ac6ec	0.21364945
120	0xbc27dd6e	-0.010245664
121	0xbd590ccf	-0.05299073
122	0x3e9a1646	0.30095118
123	0xbe2f4c31	-0.17118908
124	0xbdf7527f	-0.12076282
125	0x3e1ac046	0.15112409
126	0xbdcbb0d6	-0.09945838
127	0xbe1a15e2	-0.1504741
128	0xbce43c86	-0.027860891
129	0x3e11a7f4	0.14224225
130	0x3e3723bc	0.17884725
131	0xbc5446bd	-0.012956318
132	0x3e3b3c3a	0.18284693
133	0xbdf00f04	-0.11721614
134	0xbdbb2cdf	-0.09139418
135	0x3cf04b6c	0.029332839
136	0x3def6236	0.11688654
137	0x3a2d5528	0.00066121155
138	0x3dd93a9a	0.106068805
139	0xbe1e8b35	-0.15482791
140	0xbda161a7	-0.07879954
141	0xbd28842b	-0.04114167
142	0x3dc90320	0.09815049
143	0xbdbe3d4b	-0.092890345
144	0x3db9508c	0.09048566
145	0xbaafb7d4	-0.0013406225
146	0xbe181a05	-0.14853676
147	0xbd889b2b	-0.06670221
148	0x3e2d473c	0.16921705
149	0x3e26c3a6	0.16285571
150	0xbd60da5f	-0.054895755
151	0xbc9ce333	-0.019151306
152	0xbc8a4c24	-0.01688201
153	0xbe09ae47	-0.13445388
154	0xbe49d80c	-0.19711322
155	0xbe06ce3b	-0.13164608
156	0x3e31941c	0.17341655
157	0x3b8f43e7	0.0043721083
158	0x3cf57019	0.029960679
159	0x3dc4ad18	0.096033275
160	0x3e488a4b	0.19584005
161	0x3e632c36	0.22184834
162	0xbd791418	-0.06081018
163	0x3df3ce9d	0.11904643
164	0xbd018589	-0.03162149
165	0xbdd322d0	-0.10309374
166	0xbcaaae96	-0.020835202
167	0x3dddde8b	0.10833462
168	0x3d9fbe34	0.0779995
169	0xbce4f434	-0.027948476
170	0xbe773ebc	-0.24145025
171	0x3b7b0342	0.0038301502
172	0x3df97252	0.12180008
173	0x3cfc80b0	0.030823082
174	0xbda2b57b	-0.07944771
175	0xbdab9731	-0.08378447
176	0xbd0e0cd9	-0.03468022
177	0x3c39743d	0.011319217
178	0x3cbcfdd1	0.023070248
179	0xbe182e50	-0.14861417
180	0x3e1be247	0.15223037
181	0xbc3aac10	-0.011393562
182	0xbd2a72bf	-0.041613337
183	0xbd921e2c	-0.07134661
184	0x3e2a1bcb	0.16612165
185	0xbdf6df91	-0.12054361
186	0xbe5e2ece	-0.21697542
187	0x3dcf597f	0.10124492
188	0xbd8c446a	-0.068489864
189	0xbd1739b4	-0.036920264
190	0x3cceebe9	0.025258975
191	0xbdbb0cb0	-0.09133279
192	0x3e321536	0.17390904
193	0x3bbd41d3	0.005775669
194	0x3d0b1632	0.033956714
195	0xbe2a2036	-0.1661385
196	0xbd3082d1	-0.043093506
197	0x3dcad5a2	0.099040285
198	0xbd722a87	-0.05912259
199	0xbd860fb9	-0.065459676
200	0x3d973856	0.07383792
201	0xbe741731	-0.23836972
202	0xbcfc8afe	-0.030827995
203	0x3e852496	0.26004475
204	0x3db87ee6	0.09008579
205	0x3d93f440	0.07224321
206	0x3e00bb4e	0.12571451
207	0xbe0516e0	-0.12997007
208	0x3e3fd008	0.18731701
209	0x3de89934	0.11357346
210	0xbd0a30d6	-0.03373798
211	0xbe0113f6	-0.1260527
212	0xbb5b5ad1	-0.003347088
213	0x3d6db712	0.058035918
214	0xbd999dc6	-0.07500796
215	0x3e0543f0	0.13014197
216	0x3e3dc378	0.18531597
217	0xbe5de6c2	-0.21670058
218	0x3e126335	0.14295657
219	0xbba8f139	-0.005155709
220	0x3add73df	0.0016895494
221	0x3e19ae47	0.15007888
222	0xbd9d5a80	-0.07683277
223	0xbd2ee3e9	-0.04269782
224	0xbdd9367a	-0.10606094
225	0xbdddb7af	-0.108260505
226	0x3ddd2942	0.10798885
227	0x3e4c6ccc	0.19963378
228	0x3df3d421	0.11905695
229	0xbd19f3ad	-0.037585903
230	0xbd1de8c0	-0.038552046
231	0x3c0036cd	0.0078255655
232	0x3e3b6098	0.18298566
233	0x3e628004	0.22119147
234	0xbd16cbbe	-0.036815397
235	0xbde829a0	-0.11336064
236	0x3db425c4	0.08796266
237	0xbdce4ac6	-0.10072856
238	0x3e3aad5d	0.18230195
239	0x3dbf8459	0.09351415
240	0x3e339d25	0.17540415
241	0x3db60e79	0.08889479
242	0x3d7de730	0.061988056
243	0xb9f7ea60	-0.00047286134
244	0x3e06eccb	0.13176267
245	0x3df5e862	0.12007214
246	0xbdfc7992	-0.12327875
247	0x3db2269c	0.086987704
248	0x3e202280	0.1563816
249	0xbea915ef	-0.33024547
250	0xbe341f3b	-0.17590038
251	0x3d744b5b	0.059642177
252	0xbd8c6623	-0.068554185
253	0x3dfdd7a0	0.12394643
254	0xbda83eba	-0.08215089
255	0x3c9a4779	0.018832909

lstm.bias_ih_l0 f4 [512]
0	0xbdcd5bec	-0.10027298
1	0xbcd700e2	-0.026245538
2	0xbe3acdbb	-0.18242542
3	0xbd00039c	-0.031253442
4	0xbd92fab0	-0.07176721
5	0xbe45ae75	-0.19304831
6	0xbe8d1ce2	-0.27561098
7	0xbdd5f826	-0.10447721
8	0x3b388c58	0.0028159823
9	0xbe14b5fc	-0.14522547
10	0x3d8711b0	0.065951705
11	0xbe0350a7	-0.12823735
12	0xbe3752ff	-0.17902754
13	0xbd9d4746	-0.0767961
14	0xbcb43478	-0.021997675
15	0xbdab3db8	-0.08361381
16	0xbe0d0402	-0.1377106
17	0xbb1b790c	-0.0023723273
18	0xbe09d7ba	-0.134612
19	0x3d00c0e7	0.031433966
20	0xbe494716	-0.19656023
21	0xbe8230d7	-0.25427887
22	0xbdfad340	-0.12247324
23	0xbe34651b	-0.17616694
24	0x3d40785f	0.046989795
25	0xbc643d5c	-0.013930645
26	0xbdd65850	-0.10466063
27	0xbd662b40	-0.05619359
28	0xbcd5f546	-0.026117932
29	0x3ca72163	0.020401662
30	0xbe834ef4	-0.25646174
31	0xbcda0860	-0.026615322
32	0xbe27317a	-0.16327468
33	0x3d4852e1	0.048907164
34	0xbdbd3f85	-0.09240631
35	0x3d9a3865	0.07530288
36	0x3dbf987c	0.09355256
37	0xbdc6d8ba	-0.09709306
38	0xbdc65d36	-0.09685747
39	0x3c573b38	0.013136677
40	0xbd41249b	-0.04715405
41	0xbd927a4b	-0.07152232
42	0xbddfcb20	-0.10927415
43	0xbe72e7e2	-0.23721269
44	0xbe00ba83	-0.12571149
45	0x3c054f45	0.008136575
46	0xbe1028fd	-0.14078136
47	0xbe155dc6	-0.14586553
48	0xbde7c1b0	-0.1131624
49	0xbd63e5ea	-0.055639185
50	0xbe1ab18b	-0.1510679
51	0xbe50d86f	-0.20395063
52	0xbdf73140	-0.120699406
53	0xbd93b589	-0.072123595
54	0xbd2e2b8b	-0.042521995
55	0xbe75b095	-0.23993142
56	0xbe3e6581	-0.18593408
57	0x3c1ec81a	0.009691263
58	0xbe3fe52c	-0.18739766
59	0x3d8dd868	0.06926042
60	0xbdd9efdd	-0.106414534
61	0xbe97566f	-0.2955813
62	0xbdd77df0	-0.105220675
63	0xbdc01e68	-0.093807995
64	0xbd257bdf	-0.040401336
65	0x3bdb13f0	0.0066857263
66	0xbe1ac90f	-0.1511576
67	0xbdb5318e	-0.088473424
68	0x3d9a432d	0.07532344
69	0xbcc02300	-0.02345419
70	0xbe4d06fb	-0.20022194
71	0xbe805174	-0.25062144
72	0xbe344fae	-0.1760852
73	0xbe43c490	-0.19117951
74	0xbdd09458	-0.10184544
75	0xbe306eff	-0.17229842
76	0xbd5c0575	-0.05371614
77	0xbdb25f99	-0.0870964
78	0xbd5eca01	-0.054391865
79	0xbd6240f5	-0.05523773
80	0xbe6df72c	-0.2323882
81	0xbdb8c50b	-0.09021958
82	0xbe0819be	-0.1329107
83	0x3e0fa104	0.14026266
84	0xbe10f735	-0.14156802
85	0xbd57a4e9	-0.052647505
86	0xbd5a6aec	-0.053324625
87	0xbd43c661	-0.04779661
88	0x3d9a0692	0.075207844
89	0x3ded29f1	0.11580265
90	0xbe8e7997	-0.2782714
91	0xbe35dca5	-0.1775995
92	0xbb43da0d	-0.0029884607
93	0xbd48886e	-0.048958234
94	0xbdc94b3c	-0.09828803
95	0xbe59f179	-0.21283521
96	0xbe30d724	-0.1726957
97	0xbe246511	-0.16054179
98	0x3d029f8d	0.03189044
99	0xbe1ea3df	-0.154922
100	0xbe8b2c17	-0.27182075
101	0xbe0615ed	-0.13094302
102	0xbd84f4df	-0.06492018
103	0xbe1b5833	-0.15170364
104	0xbe3fb0a0	-0.18719721
105	0xbd94dc09	-0.07268531
106	0x3db21796	0.08695905
107	0xbe2af0d8	-0.16693437
108	0xbd868e89	-0.06570155
109	0xbde5733c	-0.1120362
110	0xbdaad517	-0.08341425
111	0xbdced3e9	-0.100990124
112	0xbe1f70fa	-0.15570441
113	0xbe193450	-0.14961362
114	0xbb883771	-0.0041569998
115	0xbdaafc50	-0.08348906
116	0xbe5f3d86	-0.21800813
117	0xbe3593b8	-0.17732131
118	0xbe70c045	-0.23510845
119	0xbdc59720	-0.096479654
120	0xbdbe6c3a	-0.09297986
121	0xbe21537d	-0.15754505
122	0xbe0ddb78	-0.13853252
123	0xbe102040	-0.14074802
124	0xbc57a2f6	-0.0131614115
125	0xbd769684	-0.060202137
126	0xbdb1d495	-0.08683125
127	0xbe4dbe84	-0.20092207
128	0x3de223c3	0.11041977
129	0x3e255c8a	0.16148582
130	0x3d80dac6	0.06291728
131	0xbdc62511	-0.096750386
132	0xbdacce8f	-0.084378354
133	0xbe4417e0	-0.19149733
134	0xbd8acd3c	-0.067774266
135	0x3c0741f3	0.00825547
136	0x3c386fa3	0.011257085
137	0xbe7556fd	-0.23958965
138	0xbe042aed	-0.12907
139	0x3c2c05cb	0.010499428
140	0x3d1ff808	0.0390549
141	0xbd502934	-0.050820544
142	0xbdddee54	-0.10836473
143	0x3dc33057	0.095307045
144	0xbd228ecf	-0.039686974
145	0xbd56177a	-0.052268483
146	0xbd8fecb0	-0.070275664
147	0xbbe422e1	-0.0069621657
148	0xbd062661	-0.032751445
149	0xbd85e44c	-0.06537685
150	0x3be71246	0.007051739
151	0xbd00f57b	-0.03148411
152	0x3de083b4	0.109626204
153	0x3e18741c	0.14888042
154	0x3d7f5488	0.062336475
155	0xbd97f7ec	-0.07420334
156	0x3e1f8285	0.15577133
157	0x3e262e03	0.1622849
158	0xbe134275	-0.1438082
159	0xbd00b65c	-0.03142391
160	0x3e1a4500	0.15065384
161	0x3daae218	0.08343905
162	0x3c94fb58	0.018186256
163	0x3ead637d	0.33864966
164	0x3b1433b6	0.002261383
165	0x3d986ca4	0.074425966
166	0xbda871a6	-0.08224802
167	0x3dc46f0c	0.09591493
168	0x3b412220	0.0029469803
169	0x3d1d4b7d	0.03840207
170	0xbbb3cbae	-0.005486927
171	0xbd913a2c	-0.070911735
172	0x3d8ba5f7	0.06818765
173	0xbc8812ea	-0.016610581
174	0x3ccd81a2	0.025086228
175	0x3db93bcf	0.09044611
176	0xbd82cb30	-0.06386411
177	0xbd51b1d8	-0.051194996
178	0x3e19cc0f	0.15019248
179	0xbda981e4	-0.08276728
180	0xbcea1d0a	-0.0285783
181	0xbdd8bddf	-0.1058309
182	0x3d407b15	0.04699238
183	0xbc0df583	-0.008664492
184	0x3e046a62	0.12931207
185	0xbe86869a	-0.26274568
186	0x3d8e87fe	0.06959532
187	0x3e0c12f6	0.13679108
188	0x3dc29c5d	0.0950248
189	0x3c5b29d7	0.013376675
190	0xbcb24f0b	-0.021766206
191	0xbcd33545	-0.025782237
192	0x3ca2737b	0.019830456
193	0x3d99fa17	0.07518404
194	0xbd9861b4	-0.074405104
195	0x3e1d6dc9	0.15373911
196	0x3da26671	0.079296954
197	0x3ca4b395	0.020105163
198	0xbd6f090b	-0.058358233
199	0x3dcaa97c	0.09895608
200	0xbe0e49ba	-0.13895312
201	0xbdeccfbb	-0.11563059
202	0x3e2b4468	0.16725314
203	0xbc64787b	-0.01394474
204	0xbdc69f70	-0.09698379
205	0xbd2f70f3	-0.042832326
206	0xbda5144d	-0.08060513
207	0xbe34e2e1	-0.17664672
208	0xbdbd31a2	-0.09237982
209	0xbcc715d4	-0.0243024
210	0x3da5fd50	0.08104956
211	0xbd9e8dd0	-0.07741892
212	0x3dafd5f1	0.08585728
213	0x3d32c571	0.043645326
214	0x3e374e28	0.17900908
215	0x3ca35f14	0.019942798
216	0x3e109f4a	0.14123264
217	0x3c365e00	0.01113081
218	0xbd08ab62	-0.03336657
219	0xbb65cdca	-0.0035065287
220	0xbdadb6c8	-0.084821284
221	0x3deaa1d8	0.114566505
222	0x3ca5d677	0.020243866
223	0xbdaf763f	-0.085674755
224	0x3c9776dc	0.018489294
225	0xbc6d3d04	-0.014479879
226	0xbc5a646c	-0.0133296065
227	0x3d46f809	0.04857639
228	0xbda0092e	-0.07814251
229	0xbe6ced43	-0.23137383
230	0x3d0eb9e8	0.034845263
231	0x3e06db12	0.13169506
232	0xbdee4d94	-0.116358906
233	0x3e517f1d	0.20458646
234	0x3d2914e4	0.04127969
235	0x3dade893	0.08491626
236	0xbd559fcb	-0.052154344
237	0xbe1c222b	-0.15247409
238	0xbdf9fa90	-0.12205994
239	0xbd352e6f	-0.044233736
240	0x3de15a5f	0.11003565
241	0xbd7a1f57	-0.061065044
242	0x3e0f1285	0.13971908
243	0xbd73103f	-0.059341665
244	0x3ca96a23	0.020680493
245	0xbe6a4be9	-0.2288052
246	0xbd89423d	-0.06702087
247	0x3d7fbb28	0.062434345
248	0xbcfe2895	-0.03102521
249	0xbdc0a248	-0.09405953
250	0xbd799be7	-0.060939696
251	0x3da3a197	0.07989805
252	0x3e411f85	0.1885968
253	0xbd81fa23	-0.06346538
254	0x3d487fe3	0.048950087
255	0xbc8079e3	-0.01568312

lstm.bias_hh_l0 f4 [512]
0	0xbc8e9a2e	-0.017407503
1	0xbd6adac4	-0.057337537
2	0xbd1761bc	-0.03695844
3	0x3ce15ccb	0.027510067
4	0xbdddb796	-0.10826032
5	0xbe9347cc	-0.28765714
6	0xbe621b35	-0.22080691
7	0xbdc453d2	-0.095863
8	0xbdbcacca	-0.092126444
9	0xbe863dfa	-0.2621916
10	0xbd877487	-0.06614023
11	0xbd8a9c0d	-0.067680456
12	0xbe0f3f19	-0.13988914
13	0xbe27555d	-0.16341157
14	0x3b9462e2	0.0045283893
15	0xbdcc2cff	-0.0996952
16	0xbe0eac82	-0.13932994
17	0xbba9c60b	-0.0051810793
18	0xbdd86431	-0.10565985
19	0x3ddc3128	0.10751563
20	0xbdf0854f	-0.117441766
21	0xbe1732d7	-0.14765488
22	0xbe1d6101	-0.15369035
23	0xbe6bbd70	-0.23021483
24	0xbc18894f	-0.009310081
25	0xbd48b5d5	-0.049001534
26	0xbdeb503b	-0.11489912
27	0xbd24a60a	-0.04019741
28	0xbbd91312	-0.006624588
29	0xbc4d24c5	-0.012520974
30	0xbe842fbc	-0.25817668
31	0xbdd8442d	-0.105598785
32	0xbe2bb740	-0.16769123
33	0xbddd882e	-0.1081699
34	0xbccd650a	-0.025072593
35	0x3d38c98f	0.045114096
36	0x3e073c74	0.13206655
37	0xbd5db2ca	-0.054125585
38	0xbd90ae2e	-0.07064472
39	0x3d95c3d9	0.073127456
40	0xbd9e4059	-0.07727117
41	0xbda9c3f6	-0.0828933
42	0xbcfd58e1	-0.03092617
43	0xbe58d0d4	-0.21173412
44	0xbde57e63	-0.11205747
45	0xbe1ebbf2	-0.15501383
46	0xbe180db0	-0.14848971
47	0xbd9d4505	-0.0767918
48	0xbe92ddaa	-0.2868474
49	0xbd2489c8	-0.04017046
50	0xbe3a8c0f	-0.1821749
51	0xbe24d956	-0.16098532
52	0xbe1058a0	-0.14096308
53	0xbdfcdbbb	-0.12346598
54	0xbd021ec5	-0.031767625
55	0xbde3ce50	-0.11123335
56	0xbd67b8ed	-0.056572843
57	0xbd37cb12	-0.044871397
58	0xbe5c46b1	-0.21511342
59	0xbd0bf962	-0.034173377
60	0xbd82be73	-0.063839816
61	0xbe30a592	-0.1725066
62	0xbe12115a	-0.14264432
63	0xbe4881c8	-0.19580758
64	0xbd270e6a	-0.04078523
65	0x3e1f214b	0.15540044
66	0xbe222887	-0.15835772
67	0xbdb189a9	-0.08668835
68	0x3a26c83b	0.0006362234
69	0xbe224a61	-0.15848686
70	0xbe47ee94	-0.19524604
71	0xbe50f860	-0.20407248
72	0xbe949e71	-0.2902713
73	0xbddd6af7	-0.108114175
74	0xbe0888bb	-0.13333409
75	0xbe6d1c12	-0.23155239
76	0xbde2f7b7	-0.11082404
77	0xbe5e304e	-0.21698114
78	0xbe03ede5	-0.12883718
79	0xbdfe3f71	-0.12414444
80	0xbe175381	-0.14777948
81	0xbe06fd33	-0.13182525
82	0xbe04a5a6	-0.12953815
83	0x3cec7ede	0.028869089
84	0xbd703d5d	-0.05865227
85	0xbdbba5b4	-0.09162465
86	0xbc9f7beb	-0.019468268
87	0xbdd78462	-0.10523297
88	0x3d69c38e	0.05707126
89	0x3d5dc7f3	0.054145765
90	0xbe374acd	-0.17899628
91	0xbd3e89d6	-0.04651817
92	0x3b854f11	0.0040682633
93	0xbe25c049	-0.16186632
94	0xbc86f642	-0.016474847
95	0xbe7b0b6a	-0.24516073
96	0xbdbd7b5f	-0.09252047
97	0xbe04dc26	-0.12974605
98	0x3dae07a1	0.08497549
99	0xbd4a9655	-0.049459774
100	0xbe54ac57	-0.20768867
101	0xbe171595	-0.14754327
102	0xbe04f692	-0.12984684
103	0xbe6209f6	-0.22074112
104	0xbe14dc71	-0.14537217
105	0xba5c3b63	-0.00084011833
106	0xbd1c9fe3	-0.038238417
107	0xbe047506	-0.12935266
108	0xbe1ace0c	-0.15117663
109	0xbe58e530	-0.21181178
110	0xbe0f194d	-0.13974495
111	0xbdb1a8b8	-0.08674759
112	0xbe4faf80	-0.20281792
113	0xbe263b49	-0.16233553
114	0x3c15d5a8	0.009145178
115	0xbb502ef4	-0.0031766267
116	0xbdee6db2	-0.116420165
117	0xbd7f8faa	-0.062392868
118	0xbdfc1abe	-0.12309788
119	0xbe2297ea	-0.15878263
120	0xbe44e4cf	-0.19227909
121	0xbe2bd72e	-0.16781303
122	0xbdd111e8	-0.102084935
123	0xbe731d87	-0.23741733
124	0xbd30aace	-0.043131642
125	0xbca57574	-0.020197608
126	0xbdc6e4c8	-0.09711605
127	0xbe206b08	-0.15665829
128	0x3d8f4c37	0.06996959
129	0x3df68aa6	0.12038164
130	0xbcd3c465	-0.025850484
131	0xbb863ce4	-0.004096614
132	0xbd83b272	-0.0643052
133	0xbd5e7631	-0.054311935
134	0xbd4c6e25	-0.04990973
135	0xbc0f371a	-0.008741165
136	0xbc688cd6	-0.014193734
137	0xbd8afe49	-0.06786782
138	0xbdb45d41	-0.08806849
139	0x3d981748	0.074263155
140	0x3dc88ca3	0.09792449
141	0xbcbf7cb8	-0.0233749
142	0xbe06d8e3	-0.13168673
143	0x3dd48c34	0.10378304
144	0xbe10b2c0	-0.14130688
145	0xbde6a822	-0.112625375
146	0x3d920077	0.07128995
147	0x3dab7b3d	0.08373115
148	0xbdeae867	-0.114701085
149	0x3a3a7987	0.0007113446
150	0x3cd56902	0.026051048
151	0xbdacbd9a	-0.08434601
152	0x3d506e35	0.05088635
153	0x3d80542d	0.06266055
154	0x3c9fcf4b	0.019508025
155	0xbdc39b90	-0.095511556
156	0x3e30e108	0.17273343
157	0x3e1cdcb8	0.15318573
158	0xbe283350	-0.16425824
159	0x3d90f508	0.07077986
160	0x3e45227e	0.19251439
161	0x3e520778	0.20510662
162	0x3d7d556c	0.061849043
163	0x3e7f8275	0.24952109
164	0x3dbf3a59	0.09337301
165	0x3dec47b7	0.11537116
166	0xbcca7fcb	-0.02471914
167	0x3e029c83	0.12755017
168	0x3dd9fa6f	0.106434695
169	0xbc0f7b9f	-0.008757501
170	0xbadbd715	-0.0016772473
171	0xbe149fe4	-0.14514118
172	0x3d40efed	0.04710381
173	0xbd09ada3	-0.03361286
174	0x3d0089c8	0.0313814
175	0x3d8ce42d	0.068794586
176	0xbd8bf714	-0.06834236
177	0x3da65fd3	0.08123746
178	0x3d158c44	0.03651072
179	0xbdb96ad8	-0.09053582
180	0x3d9fb187	0.077975325
181	0xbcd06f9f	-0.02544385
182	0x3dc9f91f	0.09861969
183	0xbdc08c98	-0.09401816
184	0x3de8fa50	0.11375868
185	0xbdfb8f09	-0.12283141
186	0xbd99f3c6	-0.07517199
187	0x3e049f0e	0.129513
188	0x3cfaa3d6	0.030595701
189	0x3c94faaf	0.018185942
190	0x3d846068	0.064637005
191	0x3c22119d	0.009891895
192	0x3c9ef365	0.019403169
193	0x3db8ebc2	0.09029342
194	0xbd745af3	-0.05965705
195	0x3db480a8	0.08813602
196	0x3e3d111e	0.18463561
197	0xbdaf9955	-0.08574168
198	0x3d80b71d	0.06284926
199	0x3e3d805d	0.18505998
200	0xbe84bd4c	-0.25925672
201	0xbd8ae208	-0.06781393
202	0x3e23c8dd	0.15994592
203	0xbc303fa9	-0.010757365
204	0xbd7bd6fd	-0.061484326
205	0xbda88093	-0.082276486
206	0xbd1c25bf	-0.038121935
207	0xbd754357	-0.059878673
208	0xbdb25739	-0.08708043
209	0xbb1c43dc	-0.0023844158
210	0xbd1b7314	-0.037951544
211	0x3c18b409	0.0093202675
212	0x3e331f16	0.17492327
213	0x3e20788f	0.1567099
214	0x3e2da108	0.1695596
215	0xbdc53b1e	-0.09630416
216	0x3dcc2e21	0.09969736
217	0x3d3a09b1	0.0454194
218	0x3dcb79df	0.099353544
219	0x3e1c18e7	0.15243874
220	0x3ca619d0	0.02027598
221	0x3e188abe	0.14896676
222	0x3dd7d33b	0.10538336
223	0xbddd8e75	-0.10818187
224	0xbde501e6	-0.11182003
225	0xbc95a0ad	-0.018265093
226	0x3d0abdda	0.033872463
227	0x3dc60c50	0.09670317
228	0xbe51b035	-0.20477374
229	0xbe2f833a	-0.17139903
230	0xbd1cbe25	-0.038267273
231	0x3d042095	0.032257635
232	0x3c3e3118	0.011608385
233	0x3e491c48	0.19639695
234	0x3d4afe78	0.049559087
235	0x3dbf64be	0.09345387
236	0x3cd9ea5d	0.026601011
237	0xbdf2002f	-0.11816441
238	0xbda82704	-0.08210567
239	0xbd645489	-0.05574468
240	0x3dcd8832	0.10035743
241	0xbd25e3fd	-0.04050063
242	0x3e1045d8	0.14089143
243	0xbd3798a6	-0.04482331
244	0x3acf45bf	0.0015813633
245	0xbe6cacc7	-0.23112784
246	0xbe0da260	-0.13831472
247	0xbdbabf36	-0.09118502
248	0xbc71893b	-0.014742191
249	0x3c40176b	0.011724333
250	0xbdf272da	-0.118383124
251	0x3d828694	0.06373325
252	0x3da355e6	0.07975368
253	0xbe03d6b8	-0.12874877
254	0x3d7e28a0	0.06205046
255	0xbe04d9b5	-0.12973674

fc.weight f4 [3, 128]
0	0x3ce0d463	0.027445024
1	0xbdeaad83	-0.11458876
2	0xbd385141	-0.044999365
3	0xbe646731	-0.2230499
4	0xbdbbcb33	-0.091696166
5	0x3dc888fa	0.09791751
6	0xbd859f30	-0.06524503
7	0x3d0c87b8	0.03430912
8	0x3df83728	0.12119895
9	0x3d95c4d7	0.07312935
10	0xbe36f757	-0.1786779
11	0xbacca35c	-0.001561265
12	0xbb58bf6b	-0.0033073078
13	0xbcf380fb	-0.029724589
14	0xbc60f3c5	-0.013729994
15	0xbdc7784c	-0.09739742
16	0xbd2d4573	-0.04230256
17	0x3d89d911	0.06730855
18	0x3d9acbf6	0.07558434
19	0x3de44eaf	0.1114782
20	0xbdf956d9	-0.12174768
21	0x3de3012d	0.11084209
22	0xbc8e1cdc	-0.017347746
23	0xbdb9126d	-0.090367176
24	0x3e03d2ab	0.12873332
25	0xbdbdb600	-0.09263229
26	0x3e23cc0c	0.15995806
27	0xbe1a7f6d	-0.15087672
28	0xb9d91498	-0.0004140481
29	0x3e2b11e4	0.16706043
30	0xbc9734c6	-0.018457782
31	0xbd716313	-0.058932375
32	0x3e529b3f	0.20567034
33	0xbad9a4a7	-0.0016604856
34	0xbde81c1f	-0.11333489
35	0x3d5942d3	0.053042244
36	0xbe5576dc	-0.20846123
37	0xbd8b2a73	-0.06795206
38	0x3cd97656	0.026545685
39	0xba0f8896	-0.000547537
40	0xbdfc42d0	-0.12317431
41	0x3dac6635	0.08417932
42	0xbe456531	-0.19276883
43	0x3d3b12ff	0.045672413
44	0xbdec73ed	-0.115455486
45	0x3bb8b204	0.0056364555
46	0xbdec93bf	-0.11551618
47	0x3e07d594	0.13265067
48	0xbddef1f1	-0.108859904
49	0xbd863965	-0.06553916
50	0xbd9552e6	-0.07291202
51	0x3ccc869e	0.024966534
52	0x3ded12dc	0.11575863
53	0xbd4f5cec	-0.050625727
54	0xbe2a5fde	-0.16638133
55	0xbe084a4f	-0.13309596
56	0xbd09f3b7	-0.03367969
57	0x3a4d16a6	0.0007823504
58	0xbd16f542	-0.03685499
59	0xbd06c955	-0.03290685
60	0xbc9b4903	-0.018955713
61	0xbd1bf8d8	-0.038079113
62	0xbdd3781f	-0.10325646
63	0x3b8447be	0.0040368726
64	0x3dd1460a	0.10218437
65	0xbe58dab6	-0.21177182
66	0xbcba32e1	-0.02272934
67	0x3dd49197	0.103793316
68	0xbe0a3700	-0.13497543
69	0xbe087900	-0.13327408
70	0xbd83706b	-0.064179264
71	0xbdfb3017	-0.12265032
72	0xbd16509e	-0.036697976
73	0xbca7187f	-0.020397423
74	0xbe0597a4	-0.13046128
75	0x3cb5111b	0.022102883
76	0x3d03cbed	0.0321769
77	0xbd40d2cb	-0.047076028
78	0xbc135a77	-0.0089937365
79	0xbdad7785	-0.08470062
80	0x3c347653	0.011014539
81	0xbdd3bdd0	-0.10338938
82	0x3dbda179	0.09259314
83	0x3e2136fa	0.15743628
84	0xbda3e66a	-0.08002932
85	0x3e0180a6	0.12646732
86	0xbd31bc22	-0.043392308
87	0x3d143cad	0.036190677
88	0xbc309970	-0.01077877
89	0x3ddf6587	0.10908037
90	0x3d01fd34	0.031735614
91	0xbda37eb7	-0.07983153
92	0x3df703d4	0.12061277
93	0x3d6ad6b7	0.057333674
94	0x3ddc4e01	0.107570656
95	0xbbdc6ef0	-0.006727092
96	0xbd15e873	-0.036598634
97	0x3ca8267b	0.020526161
98	0x3df9ac88	0.12191111
99	0xbe21db27	-0.15806256
100	0x3d81ed74	0.06344119
101	0xbd52014c	-0.051270768
102	0x3d877157	0.06613415
103	0xbd94e688	-0.07270533
104	0x3cb83b82	0.022489313
105	0x3dba1304	0.09085658
106	0x3d529e79	0.051420663
107	0xbe250952	-0.16116837
108	0xbe21b843	-0.15792947
109	0xbcb5b759	-0.022182154
110	0xbb0c95a1	-0.002145149
111	0xbd947a67	-0.07249909
112	0xbddadc05	-0.10686497
113	0x3d40e81e	0.047096364
114	0xbe7e708a	-0.24847618
115	0xbd1d1862	-0.03835333
116	0xbd3662f7	-0.044527974
117	0xbe190e43	-0.14946847
118	0xbd29c4ee	-0.041447572
119	0x3c58212c	0.013191503
120	0x3d2b8e75	0.041883904
121	0xbd2317bb	-0.039817553
122	0x3dade769	0.084914036
123	0xbd659569	-0.05605069
124	0x3e208abc	0.15677923
125	0xbc68d57a	-0.014211053
126	0x3b88c8cf	0.004174329
127	0x3e0ca213	0.13733701
128	0xbd77c04c	-0.060486123
129	0x3d63be53	0.05560143
130	0x3dcff4e8	0.10154134
131	0x3e57ba66	0.21067199
132	0x3d0efd59	0.03490958
133	0xbcd68c94	-0.02619008
134	0xbb9af9fc	-0.0047295075
135	0x3caa4c11	0.020788224
136	0xbe132b5c	-0.14372009
137	0xbd36c794	-0.044623926
138	0x3e3025d1	0.17201926
139	0xbc9b388f	-0.018947868
140	0x3d996baf	0.07491242
141	0x3c7776e4	0.015104029
142	0xbd49192c	-0.04909627
143	0x3dd0c357	0.10193508
144	0x3cbbf97a	0.022946108
145	0x3cefc5dd	0.029269153
146	0xbe17477e	-0.14773366
147	0xbe148041	-0.1450205
148	0x3e07fded	0.13280459
149	0xbdcf91e5	-0.10135249
150	0x3c0a5ae7	0.008444524
151	0x3df4e9ff	0.11958694
152	0xbd1b4121	-0.03790391
153	0x3dcd6a37	0.100300245
154	0xbd88e61e	-0.06684516
155	0x3e32475a	0.17410031
156	0x3c810257	0.015748186
157	0xbe0e5247	-0.13898574
158	0xbd3636b0	-0.044485748
159	0xbafd5b70	-0.0019329619
160	0xbd49dd43	-0.049283277
161	0xbc8cc705	-0.017184744
162	0x3d4cc186	0.049989246
163	0xbd472faa	-0.04862944
164	0x3dbc38ea	0.09190543
165	0x3d1492db	0.036272865
166	0xbd8eb4d4	-0.06968084
167	0x3cffeead	0.03124174
168	0x3e5ec17b	0.21753494
169	0xbd4d9859	-0.05019412
170	0x3e060efa	0.1309165
171	0xbd8e694f	-0.0695368
172	0x3d077c2a	0.033077396
173	0xbcfa4f85	-0.030555496
174	0x3ddf1190	0.10892022
175	0xbdd2ab34	-0.10286561
176	0x3defe06c	0.11712727
177	0x3e1d6c13	0.15373258
178	0x3dea1ad5	0.11430899
179	0xbd11e87e	-0.035622112
180	0xbdc41b98	-0.095755756
181	0x3cccf8c5	0.025020966
182	0x3deba254	0.11505571
183	0x3d8a3411	0.06748212
184	0x3da16dc7	0.078822665
185	0x3e3b3011	0.18280055
186	0x3d890fe9	0.06692488
187	0x3db6b8fc	0.08922002
188	0x3c8cc924	0.017185755
189	0x3d91ec8c	0.07125196
190	0x3e0e33a0	0.13886881
191	0xbcbc655f	-0.022997556
192	0xbd552d1a	-0.052044965
193	0x3df95dfa	0.12176128
194	0x3cd1bbcd	0.025602246
195	0xbcba43c3	-0.02273739
196	0x3dca4168	0.098757565
197	0x3e4a3760	0.19747686
198	0xbce7fa1a	-0.0283175
199	0x3d15ed04	0.03660299
200	0x3dc6bae5	0.09703616
201	0x3e0151b4	0.12628824
202	0x3cdb4ad2	0.026769076
203	0x3b897308	0.004194621
204	0xbd7b1bae	-0.061305694
205	0x3dac33ac	0.08408293
206	0xbd473d8b	-0.048642676
207	0xbdc3bf82	-0.095580116
208	0x3d1666a7	0.03671899
209	0x3e3df1e8	0.18549311
210	0xbd04724e	-0.032335572
211	0xbe36883b	-0.17825405
212	0x3c61be90	0.013778344
213	0xbdfd7cc5	-0.123773135
214	0x3d876461	0.06610943
215	0x3d5d2343	0.053988706
216	0x3de1221a	0.109928325
217	0xbe0185b9	-0.12648667
218	0xbde5e2b6	-0.11224882
219	0x3e00f96d	0.12595148
220	0xbdcf3302	-0.10117151
221	0xbc467888	-0.012113698
222	0xbdfbb478	-0.12290281
223	0x3c83d4fa	0.016092766
224	0xbd012460	-0.03152883
225	0xbd2568f7	-0.040383305
226	0xbde9b54b	-0.11411532
227	0x3db7d94d	0.08976994
228	0xbcb3c2c5	-0.02194346
229	0xbdbd3e03	-0.092403434
230	0xbdda1e91	-0.10650361
231	0x3d11c8b2	0.03559179
232	0x3d23b46b	0.03996698
233	0xbd8cbf7b	-0.068724595
234	0xbbff7b15	-0.007796655
235	0x3e29fcb9	0.16600312
236	0x3d9e7c27	0.07738524
237	0x3b3c043e	0.0028689052
238	0xbb8b9431	-0.004259609
239	0x3db524ef	0.08844935
240	0x3dea5ced	0.114435054
241	0xbd4b146b	-0.04958002
242	0x3e7390e0	0.23785734
243	0xbd80e376	-0.06293385
244	0x3d1f938d	0.038959075
245	0x3b6df374	0.003630844
246	0x3d68b341	0.056811575
247	0x3e23715c	0.15961212
248	0xbd70e24a	-0.058809556
249	0x3ccd624a	0.025071282
250	0x3c2a7526	0.010403907
251	0x3e220ddd	0.15825601
252	0xbe33d8aa	-0.1756312
253	0xbd0e8c68	-0.03480187
254	0xbcf392ac	-0.029733025
255	0xbe1fc3a7	-0.15601979

fc.bias f4 [3]
0	0x3e1fe0bc	0.15613073
1	0xbe568300	-0.2094841
2	0x3e142d30	0.14470363
