LSTM_best.pth (torch, 401331 bytes, 6 tensors)

lstm.weight_ih_l0 f4 [512, 64]
00000000: 0ff2 5bbd 2e3c 98bd 3a51 f5ba c7a6 00be
00000010: c781 3cbd 5948 c1bd c6f6 1d3d 2f87 95bc
00000020: ddbc 3fbd 59a7 6e3b 17a2 94bc 02bf dabd
00000030: 9610 debd b86b b0bd 67d8 15be 898c b8bd
00000040: 4a74 57bc 7098 0dbe 16b8 5f3d 7e5a 1c3d
00000050: 38de cdbb 5960 9e3b 3454 32bd 0e2b b6bc
00000060: 3799 633c 884c 083d 608e 7bbd abbe 4bbd
00000070: ae81 7bbc 9453 fbbc d954 d33c 7db1 5f3d
00000080: 8200 ce3d 3198 143d 5e7a 60bd 2ab4 bb3c
00000090: 9d94 433d 8f9e 4dbd df99 ecbd c5cf a53d
000000a0: 04f2 993d 863a 7d3c d12c bdbd 7cec 0bbd
000000b0: 422b 19bd bcd6 a4bd 221a 2fbd 1929 1e3d
000000c0: 732e 0bbd c340 51bd 795d 493d d9a7 f2bc
000000d0: 8d19 703b 772c 993d 8aa7 223c cc94 ecbd
000000e0: b5da 32bd eccb 8f3b c05a 8638 314b aabd
000000f0: 6918 b9bd 5675 4cbd 8e52 19bd 0da2 a2bd
00000100: 6350 a1bc b2fe 96bd 4556 383c 80b8 663d
00000110: 6dd0 72bd f3bc a0bd 4699 893d 75f5 47bc
00000120: 9ddf 19bd 586a 04bc 9213 03bc 0525 57bd
00000130: bc1d a63d 85d5 53bd c5e2 4fbc b42f c63b
00000140: 66a1 b83c 03dc 64bd 821c 48bd 403e 54b9
00000150: 176a 4d3d 79b1 a23b 1447 a43c 345e 0b3d
00000160: 699f 41bd 030a 2bbc 8577 993d ab36 d13c
00000170: f5bd 8abd 26cb 5e3d 53da 9a3c e744 cb3d
00000180: b32b 923d 2f64 f33d 81ee a73d 2c5d d33d
00000190: c577 83bc d897 c23d e4f9 2fbd aca5 da3d
000001a0: d6b0 0d3d eb94 803d 299c bc3d 47f0 723d
000001b0: cffd 95bc f691 913d f495 093e 011f 93bd
000001c0: fbb1 313d e2c8 613d f5e9 223e b4b8 d63a
000001d0: 952e fd3d 164a e83d 46d4 1b3d ef59 aebc
000001e0: f5bf 39bc 22d1 0b3c 1872 903d 8a14 22ba
000001f0: 71cf 0f3e 81d3 02bd 0a42 ae3d 5205 52bc
00000200: c5ff 2a3d 4ed7 dcbc a485 09bd 5a22 363d
00000210: e367 ed3c 0025 a13d f893 18bd fa6a 873d
00000220: 3f41 9fbd 9544 423d dbf2 f1bc c135 f4bc
00000230: 7344 5ebd 325d 503d c884 80bd 154a d3bc
00000240: ed0d 343d cd1f 46bd 647b 96bc c8f6 0abd
00000250: 49f5 6c3c fa0a f1bc 04ce 83bd 377a 8cbd
00000260: 0e49 d1b9 6d60 c2bd d0cb 403d c8d9 6d3d
00000270: 6f41 d2bd 0175 14bd 3a3d 6fbc 5d74 183d
00000280: 1c15 1e3b 8646 17bd 9595 44bd f457 0fbe
00000290: 4f98 0bbe 82cd 6bbd f380 afbc 5a59 ddbd
000002a0: 230c f6bd fac4 bebd 1544 9ebd e78f 803c
000002b0: a6df b4bd fce1 043d 0b7c 27be afac 16be
000002c0: 5c73 17bc bb32 c3bd 0d06 a03c 645d 00be
000002d0: e5a6 59be 6f9a 173b e70b 663c e51f b0bd
000002e0: 04e9 fdbd fbef 21be f276 983c 3bb2 f1bd
000002f0: 01d1 cabc 98d0 14be 1350 9f3b a7b8 a6bd
00000300: f89d bfbb 60f0 e7bd 44f2 b7bd e7f6 f4bc
00000310: 1c2b 80bd b159 65bc c8d1 97bc 2044 0dbc
00000320: 431d 85bd 0441 903c 7f9d 8cbd 3b42 4dbc
00000330: cbe3 183d 6f9f 39bd 9c28 133c d9c1 8abd
00000340: 4d79 823d 013f 803d a79b 963d 7a4d 833d
00000350: 89ae b8bd 90ee d9bd c261 2cbd fa21 d43c
00000360: 777f a53d 4226 8bb8 1c99 883d d1fa 8ebd
00000370: 51c3 cebc 713b bcbd 6a21 c63d b786 8abd
00000380: 1b0d b4bc 3c0a 50bd b458 15bd aa3f 5abd
00000390: 0fea 17be 6647 16bd a891 4ebc eaab 0dbe
000003a0: 19a9 c3bc 5e13 f23a be25 e1bd 0c43 8ebd
000003b0: f5fc 08be a4f7 863c 5170 22bc 6539 10bd
000003c0: ef06 073d ee32 183c ba99 ebbd 850b 14be
000003d0: 1932 7c3b 37f8 e1bd 69d8 1abe 09bd 0dbd
000003e0: 5e8f 7c3d cbb4 8c3d c1a4 73bd f160 f0bc
000003f0: 6aba 60bc 0714 933d 4974 d0bd 8623 abbd
-0.053697642 -0.07433353 -0.0018716224 -0.1256362 -0.046022203 -0.09437627 0.03856542 -0.018252937
-0.046810973 0.0036415665 -0.018143697 -0.10680963 -0.10843007 -0.08614296 -0.14633332 -0.0901118
-0.013150284 -0.13827682 0.054618917 0.038172238 -0.006282594 0.004833263 -0.043537334 -0.022237327
0.01389151 0.03327611 -0.061415076 -0.049742382 -0.015350742 -0.030679502 0.025797294 0.054612625
0.100586906 0.036277954 -0.0548042 0.022913057 0.04774915 -0.05020004 -0.11552786 0.080962695
0.07516864 0.015455848 -0.09237064 -0.034161076 -0.03739477 -0.0804877 -0.04274953 0.038613413
-0.033979844 -0.051087152 0.049161408 -0.029621052 0.0036636323 0.07479184 0.00992764 -0.11551818
-0.043665607 0.004388323 6.4065214e-05 -0.08315123 -0.09037859 -0.049916588 -0.037432246 -0.07941065
-0.019691652 -0.07372798 0.011251037 0.056328297 -0.0592808 -0.07848539 0.06718688 -0.012204518
-0.03756677 -0.008081995 -0.008000271 -0.05252554 0.0811114 -0.0517173 -0.012688343 0.006048167
0.022537898 -0.055873882 -0.048855312 -0.00020241085 0.050150003 0.004965004 0.020053424 0.034025386
-0.047271166 -0.010439399 0.074935 0.025538763 -0.06774513 0.054392956 0.018902933 0.099252515
0.07137241 0.11884343 0.08199788 0.103205055 -0.016048322 0.09501618 -0.042962924 0.10676131
0.034592472 0.06278404 0.09209473 0.059311178 -0.018309502 0.07107918 0.13436109 -0.07183648
0.043382626 0.055123217 0.1590956 0.001638195 0.123624004 0.11342256 0.038044237 -0.021283118
-0.01133727 0.008533748 0.07053012 -0.000618287 0.14043976 -0.031939987 0.0850869 -0.012818651
0.041747827 -0.026958134 -0.033574715 0.044466354 0.028980201 0.07868385 -0.03725049 0.06612201
-0.077761166 0.047428686 -0.029534748 -0.029810788 -0.054264497 0.050870128 -0.06275326 -0.025792161
0.043958593 -0.04837017 -0.018369384 -0.033926755 0.014462777 -0.02942418 -0.06435779 -0.06859248
-0.00039918016 -0.09491048 0.04706937 0.05806902 -0.10266387 -0.036244396 -0.014602 0.037220348
0.002412147 -0.03693249 -0.047994215 -0.13998395 -0.1363232 -0.057569034 -0.021423792 -0.10808058
-0.12014034 -0.09314914 -0.07727829 0.015693618 -0.0883172 0.032442078 -0.16355912 -0.14714311
-0.009243812 -0.095311604 0.019534135 -0.12535626 -0.21255071 0.002313282 0.014040924 -0.085998334
-0.1239796 -0.15814202 0.018611405 -0.11801573 -0.024757864 -0.14532697 0.0048618405 -0.081406884
-0.0058476888 -0.11325145 -0.089817554 -0.029902888 -0.062582225 -0.013998435 -0.018532649 -0.008622199
-0.06499722 0.017609127 -0.068659775 -0.012527998 0.037326615 -0.045318063 0.00898185 -0.06775255
0.063707925 0.06262017 0.07353907 0.06411262 -0.09017665 -0.10641205 -0.042085417 0.025895108
0.080809526 -6.6351626e-05 0.06669828 -0.06981433 -0.025239618 -0.09191025 0.09674342 -0.06763976
-0.021978905 -0.05079101 -0.036461547 -0.05328337 -0.1483538 -0.036689185 -0.012607969 -0.13835111
-0.023884343 0.0018468907 -0.10993527 -0.06946382 -0.13377745 0.016475506 -0.009914474 -0.035210986
0.032965597 0.009289486 -0.115039304 -0.1445752 0.003848201 -0.11033671 -0.15121616 -0.034604106
0.061660163 0.06870421 -0.059483293 -0.0293431 -0.01371632 0.07181554 -0.1017843 -0.08356385

lstm.weight_hh_l0 f4 [512, 128]
00000000: abbd 9dbd 57e9 ad3d ce5c abbd 9b10 33bd
00000010: f063 babc 8e54 d0bc 73e0 32be 485d 46bc
00000020: e40e 23be d237 a13d 8cf3 763d 3a2b 353d
00000030: a9d0 41bd e7ac 1fbd 7d01 933d 60da 19bd
00000040: 8698 01bb 27a3 1b3e 5e02 833d 26ea febd
00000050: 26ca 873d d5ba 0b3c e2a7 543d 4045 d93b
00000060: af99 6fbd 111b 0dbb 899c 9c3d 07d3 aabd
00000070: ea1a 133d d33c 9dbd 7c09 77bd 1fe9 c9bc
00000080: 6857 f0bc ef10 663d 292a f9bc 79bc 08bd
00000090: 799e 103e e6a7 4fbc 31ef 85bd b2d7 643d
000000a0: a9e1 8f3d eb19 823c 6cb7 88bd 1fcf 0dbd
000000b0: 1a58 6bbd c908 a53d 270e 63bc 7d00 28bd
000000c0: c67a 39bd cb5f a7bd 4ca6 21bd 79d0 993d
000000d0: ef13 bcbb 5f66 56bd fd52 a1bd c0c4 d53d
000000e0: 221e a8bc c287 9b3d a1b4 fdbb f0f3 cc3a
000000f0: b402 793d 9e59 02bd 902b d93d 8c7c 26bc
00000100: 46d9 5abd 9d63 fdbd fcfc af3d a744 8f3c
00000110: d40c 07bd 0c85 c4bd 1322 463d 7f17 a13d
00000120: fe7c ef3c ada8 0e3d 8cec f53d d75f a1bc
00000130: ee02 113c 1978 af3c e4b8 d6bd c5f5 c03d
00000140: ebc0 753c e071 0abd 7642 c3bd b616 0cbe
00000150: 55d0 64bc b24e 0bbd 1bb0 b73d 17df a0bd
00000160: ef6b c7bc 97be 5abd 70d5 dbbd 5913 41bd
00000170: f5a9 26be c45a fa3d 81fe 9b3d 6f8a be3d
00000180: 474f e6bb b381 ccbc 2c5e d3bd 3c82 a5bd
00000190: 2aad ceba 77ca 803d 2401 b83d b42d 84bd
000001a0: a50e 663d 6995 633d a0f8 b83d 5edc db3c
000001b0: 8e57 bf3d 072b e6bc 5e20 ddbd 3d1c 5f3d
000001c0: 3e17 9dbd 9655 923d 2890 933d 6ec7 7b3d
000001d0: 2b10 3c3d 5ee1 34bc e543 963d c850 e13a
000001e0: 77c0 423c e1ca 92bc 666b 40bd 02f3 023d
000001f0: 5d17 a2bd 51e6 88bd dbb1 d2bc a2d3 14bc
00000200: 8fe7 43bd a6eb cb3c 831e 8b3d 8ca2 863d
00000210: 3f0e cf3c b222 ce3d 65fc 143e a260 89bc
00000220: 7fb0 cb3d bdc0 a73d 59f1 8e3c 8245 b93c
00000230: 8354 aebd d4de 313d f3d3 023d d7d7 bebc
00000240: 9157 e33d bd3b 92bc 97fc 043d 642d e43d
00000250: c35d aabc d69f 733d c3e9 95bd da9a c5bd
00000260: 5faa a93d b625 04bd 1dc3 dfb9 e9ac 823d
00000270: eb10 933d 50f3 a73d 09c3 a7bd de82 533d
00000280: 9475 7a3c d642 1ebc 421f 473d 0f68 f13d
00000290: c6a6 6b3d 3ba1 f2bc e130 5abd a1f1 a4bd
000002a0: 732b 5bbb ab16 793d e195 e0bd 5de6 6e3d
000002b0: c2bf 793b 2706 783d 913d 623c bf43 1a3d
000002c0: 3ac8 b2bd a2f0 5bbd a9c6 343d 3973 603d
000002d0: 5e22 763d 44b2 863d 9b49 e03c 5562 4c3d
000002e0: dea3 e43c 7f9c ac3d 65ea 353d a5b4 05be
000002f0: 685f 443d 738e 8cbc 0d03 d93c ca8f 02be
00000300: 5ede d1bd b15e a43b 9828 f2bd 84a2 b93d
00000310: 6b99 d2bc b5cf 4dbd e4e7 b13c 3ee1 90bd
00000320: e2a2 dd3c 4980 b6bd f62c d13d 1369 71bd
00000330: 6227 90bd 87c2 28bb 7df1 16bd ee67 263d
00000340: f6e9 1f3d b937 52bd dd5c 1a3d fbb2 793d
00000350: 6461 7c3c 76bc ab3d f83c 4c3d f113 b8bc
00000360: 1b27 75bd b314 b13d 399f f03a a871 8dbd
00000370: aab3 b83d 8fd5 d43c c9ca 093e c2c8 19bd
00000380: 4e9b 2e3d 21bd 353d 66f3 433c 1633 6abd
00000390: d821 0bbd 2aae f0bc 2a83 823d ed95 c73b
000003a0: 30d3 aabd 22c1 19bd 52f7 4a3d 8075 8cbd
000003b0: 86db b03d 4205 473d 3adb 28bd f799 f53d
000003c0: 065b 8dbc 54aa 2e3d fa66 5b3a be1d 20bd
000003d0: d671 533c 6878 1bbd 9297 c83c 9590 6fbd
000003e0: efa3 bc3d 5a9d 703c 2e97 dbbd 4067 99bd
000003f0: c994 eb3b 1016 5b3d 8171 033d d6d7 8dbd
-0.07702192 0.08491772 -0.083673105 -0.043717008 -0.022752732 -0.025430944 -0.17468433 -0.012107201
-0.15923649 0.07871975 0.06029086 0.044230677 -0.047318134 -0.038983252 0.07178018 -0.037561774
-0.001977475 0.15198956 0.06396936 -0.12447004 0.06630354 0.008528431 0.051917918 0.0066305697
-0.058496173 -0.0021531025 0.07647044 -0.083410315 0.03591434 -0.07677617 -0.06031178 -0.024647294
-0.029338554 0.056168493 -0.030415611 -0.033382867 0.14122953 -0.012674307 -0.06539763 0.055869766
0.07025463 0.0158815 -0.0667561 -0.034621354 -0.057457067 0.08058316 -0.013858355 -0.04101609
-0.0452831 -0.08172568 -0.039465234 0.07510466 -0.005739681 -0.052343722 -0.07877157 0.10437918
-0.020522181 0.07594253 -0.00774248 0.0015636664 0.060793594 -0.031823747 0.10604012 -0.01016153
-0.053429864 -0.12372515 0.08593175 0.01748879 -0.03297122 -0.09595689 0.04837234 0.0786581
0.029234406 0.03482883 0.12008008 -0.01969902 0.008850796 0.021419572 -0.10484484 0.09421877
0.0149996085 -0.033800006 -0.09534161 -0.13680539 -0.013965686 -0.034010597 0.08969136 -0.07855051
-0.024343459 -0.053404417 -0.10734069 -0.047137592 -0.16275771 0.122243434 0.07616902 0.09303748
-0.0070284936 -0.02496419 -0.10320696 -0.08081481 -0.001576816 0.06288617 0.089845926 -0.0645403
0.05616631 0.05556241 0.090317965 0.026838478 0.093428716 -0.028096689 -0.10797189 0.05447029
-0.07670449 0.071452305 0.0720523 0.061469488 0.045913856 -0.01104006 0.073371686 0.0017190212
0.0118867075 -0.017919006 -0.046977423 0.03197003 -0.079146124 -0.06684554 -0.025719574 -0.00908366
-0.047828253 0.02489264 0.06792929 0.06573972 0.025275348 0.10065211 0.14549406 -0.01676971
0.09945773 0.08191059 0.017449068 0.022616152 -0.08512213 0.043425396 0.03194041 -0.02329628
0.11100686 -0.017850751 0.03246745 0.1114147 -0.020796662 0.059478603 -0.07319977 -0.09648676
0.08284449 -0.032262526 -0.00042679245 0.06380636 0.07180961 0.08200705 -0.08191497 0.051638477
0.015286822 -0.00965949 0.048613794 0.11787426 0.057532094 -0.029617896 -0.05326927 -0.080538996
-0.0033442646 0.060812633 -0.10966087 0.05832516 0.0038108681 0.060552742 0.013808624 0.037662264
-0.087295964 -0.053696282 0.04413477 0.054797385 0.06009137 0.0657697 0.027378848 0.049898464
0.02791017 0.08428287 0.04441299 -0.13057192 0.04794255 -0.017157769 0.026490713 -0.12750164
-0.10247491 0.005016171 -0.11824149 0.090642005 -0.025707921 -0.050246913 0.02171702 -0.070742115
0.027055208 -0.08911187 0.10213654 -0.058938097 -0.07038762 -0.0025750713 -0.036851395 0.04062646
0.039041482 -0.051322673 0.037686218 0.060961705 0.015404079 0.083855554 0.04986283 -0.022470446
-0.059851747 0.08646526 0.0018357999 -0.06906444 0.09018643 0.025980739 0.13456263 -0.037544973
0.04262858 0.04436982 0.011959886 -0.057177626 -0.033967823 -0.029379923 0.06372674 0.0060908706
-0.08341062 -0.0375377 0.04955227 -0.06858349 0.08635621 0.048589 -0.041224696 0.11992257
-0.017255317 0.042642906 0.0008369532 -0.039090864 0.012905559 -0.037956625 0.024486337 -0.058487494
0.09210955 0.014685953 -0.107221946 -0.074903965 0.0071893674 0.053487837 0.032090668 -0.06925933

lstm.bias_ih_l0 f4 [512]
00000000: df8b 633d 36ae 5dbd df64 dfbc d31d 243e
00000010: c98e 02bd bfdc 05be 8463 4abd 5cf8 3dbd
00000020: 9dee 0f3b 7250 b0bd d999 b4bc 8c1a de3d
00000030: 6f04 f03c 5528 dfbc 1951 6c3d 3353 ac3d
00000040: cba4 a83b 7916 053c 8023 04be d8ac 05bc
00000050: 135b f6bc c02e 47bd 299c b2bc 7172 9dbc
00000060: 11e2 8c3d 0a9a 66bd 9f33 4e3c 8e75 1cbc
00000070: efa5 a73d bb90 1a3e d81e b8bd a84a 70bd
00000080: ccc1 cabd 611b 233d 5815 85bd e9c3 d1bd
00000090: f7c9 d43c 4808 a13d dade b03c 8f4f 09bd
000000a0: 939f edbd c571 e53d a817 9e3d 5344 76bd
000000b0: a54c 89bd 292d fb3c 784d cfbd 0b7a d73d
000000c0: 5b2e 503d b91f cb3d 6d87 c7bd 0e6b acbc
000000d0: 9d7f a03d 5923 2d3d 0194 93bb e994 193d
000000e0: 1ab1 943d d6b5 eebb e6da 843d c4e5 8cbd
000000f0: 3afb b4bd d132 1e3c 049d 1d3d 900c e3bc
00000100: c387 0fbe 2b21 123d 8112 98bc cd64 1d3a
00000110: 32ed 32bd 79cd c03c 968f a0bd 88df 8fbc
00000120: 8989 173d 4b3b 21bd eb45 0dbc d672 833d
00000130: cae0 4fbd 68d7 053e ac4d 87bc cae3 a0bc
00000140: 4c72 37bd 2075 4bbc efa8 38ba d129 c8bd
00000150: 1883 c9bd 6d7b ba3c e7c5 de3b 8573 dfbd
00000160: 1f1a 05bd 6244 963d b498 e63d 623e 1eba
00000170: 998d 3e3d a1b2 46bd ea09 d63d 07e1 463c
00000180: 00ea 82bc 34b8 353d a843 90bd 256b c7bd
00000190: b792 a83c 4417 ba3d 3ff9 af3c 6529 86bd
000001a0: abff 36bc dfd7 473e 16dc df3d 2777 e4bd
000001b0: 715b f63c 579b 96bd 880f 623a 8c8f 8e3c
000001c0: f96b 88bd 2659 82bd 90b5 b6bc b947 cdbd
000001d0: 0d76 923d 18e5 7f3d 5412 933c afa2 66bd
000001e0: f2e2 853d f356 8ebd 99a2 1cbe 96e9 ae3d
000001f0: 7719 c83b d5f1 e7ba b2d3 2e3d 79e8 0cbe
00000200: be3f d7bd b345 fabc 8eff 713d e44c d33c
00000210: 25c6 26bc 4cb2 af3c 64c4 92bd 6646 673d
00000220: dea0 ddbc 8d33 ecbc fe98 023d 04aa d33d
00000230: a317 413d c495 e4bc a4e0 9fbc 0068 693c
00000240: dfa4 b6bb 5d34 a43d 5984 cbbb 7ba3 333d
00000250: a47b 593d d4f6 d9bd f821 173b 1b54 d0bd
00000260: 0407 79bd 68fe 8abb 2eff dc3c 2fe8 1dbd
00000270: 5b74 843d c98d 2abd 2bfd 11bd 3440 2c3d
00000280: d629 823c e81c 1fbd b7c3 a03d 5f6b a3bd
00000290: a13e bdbc da77 113e 4a4f d6bc a1ad d53c
000002a0: c909 13bd f353 2bbd eea2 953d 3876 f7bd
000002b0: 051e 1a3e 9417 123e 1257 6cbd e536 113e
000002c0: 41ac 33bd a11b 1fbd 4a3d 993d f85b 773d
000002d0: 11d6 903c 24d7 07bd e059 b33b d47c 893d
000002e0: 0507 0dbe 3355 ae3c 95b1 82bc 6a8b f13c
000002f0: edbb 9bbb abb6 873d 6bb4 cc3b e6fb 81bc
00000300: ac73 633d 64cf 81bb c1eb 943d d570 dc3d
00000310: 2108 ccbc 1974 4d3d 83a1 753c 190a 2a3d
00000320: 8547 17bd c1d4 8d3d e3f6 8dbd 4c7b 96bc
00000330: 752d dcbd c86f 7abd 5112 053e 1192 4f3d
00000340: 5012 08bd a0f6 9cbd e629 5c3d d665 c3bd
00000350: ba22 cabc 39b2 19bd 651c 893d f888 1c3e
00000360: c686 f1bc dff9 00bd 71a4 883d 9b73 a13d
00000370: b5ae 1cbd f3f9 10bd fc96 d9bd e2cd b9bc
00000380: 5850 be3d 9a9a a63c f766 abbd b625 f6bd
00000390: 001a 103d 9d1a 3e3d 3855 f6bc 000a e53c
000003a0: cbf7 aa3c 76e8 1f3e c348 8cbd 991f debd
000003b0: bcd9 db3c d7fb 8dbd 133b 8dbd 2d9c 073a
000003c0: 4a09 8c3d a05b e4bb 5927 50bd 36f4 163d
000003d0: a6ee ed3d e7d3 c6bd e674 90bd e843 083c
000003e0: fef0 063d d1fd 87bd b952 96bd 7ddd 8b3d
000003f0: 7bb5 5f3d 5226 79bd 568e 7cbc 8b2b be3d
0.055553313 -0.05412122 -0.027269779 0.16027002 -0.03187445 -0.13072489 -0.04941131 -0.046379432
0.0021962293 -0.08609094 -0.022046017 0.10844907 0.02929899 -0.027240911 0.05769453 0.084143065
0.005146598 0.008123034 -0.12904167 -0.008158885 -0.030072724 -0.04862857 -0.021802979 -0.019219609
0.06879056 -0.056299247 0.01258555 -0.009549512 0.08185946 0.15094273 -0.08990258 -0.058664948
-0.09900245 0.039821032 -0.064982116 -0.10242445 0.02597521 0.07862908 0.021590639 -0.03352314
-0.11602702 0.112033404 0.07719356 -0.060123753 -0.06704072 0.030661182 -0.10122198 0.10521325
0.050825458 0.0991816 -0.09742627 -0.021047141 0.0783684 0.04227004 -0.0045037274 0.037495527
0.07260342 -0.00728486 0.06487064 -0.06879762 -0.0883698 0.00965567 0.03847982 -0.027715951
-0.14016633 0.035676163 -0.01856351 0.0006004095 -0.04368324 0.023535477 -0.07839887 -0.017562643
0.036996398 -0.039363187 -0.008622627 0.064183876 -0.050751485 0.13070452 -0.016516529 -0.019639868
-0.044786736 -0.0124180615 -0.0007044216 -0.09773601 -0.09839457 0.022763932 0.006798494 -0.109107055
-0.032495614 0.07337262 0.112595946 -0.00060365174 0.046521757 -0.048510198 0.1045111 0.012138612
-0.01598072 0.044365123 -0.070441544 -0.09737233 0.020577772 0.09086469 0.021481154 -0.06550864
-0.011169354 0.19515942 0.1093065 -0.11155539 0.0300729 -0.073538475 0.000862353 0.017402433
-0.06661219 -0.0636466 -0.022303373 -0.10023446 0.07151423 0.06247434 0.017953075 -0.05630749
0.06537427 -0.06950178 -0.15296401 0.08540647 0.0061065513 -0.0017695973 0.042682357 -0.13760556
-0.10510205 -0.030550813 0.059081607 0.0257935 -0.010179077 0.021447323 -0.07166365 0.05646362
-0.027054247 -0.028833175 0.031884186 0.10335162 0.047141682 -0.027903445 -0.019516297 0.014245987
-0.0055738534 0.080178 -0.0062108454 0.04385708 0.05309643 -0.10642782 0.0023061018 -0.10172292
-0.060797706 -0.0042417534 0.026977148 -0.038551506 0.064675055 -0.041639123 -0.03564183 0.042053416
0.01588909 -0.038845927 0.0784983 -0.07979464 -0.023101153 0.14205876 -0.026160855 0.02608377
-0.035898004 -0.041828107 0.07306467 -0.12083095 0.15050514 0.14266807 -0.057700224 0.14181097
-0.043865446 -0.03884471 0.07482393 0.060390443 0.0176802 -0.03316416 0.0054733604 0.06713262
-0.13772209 0.02128086 -0.015953818 0.029485423 -0.004752627 0.06626638 0.0062470934 -0.015867185
0.055530235 -0.0039614905 0.07271529 0.107637085 -0.02490622 0.050159547 0.014992121 0.041513536
-0.03693344 0.06925345 -0.069318555 -0.01836934 -0.10750858 -0.06114176 0.12995268 0.05067641
-0.03322059 -0.076642275 0.053750895 -0.09540908 -0.024674762 -0.037523482 0.06694869 0.15286624
-0.02948321 -0.031488296 0.0667199 0.07883378 -0.03825255 -0.03539462 -0.10624501 -0.02268118
0.09292668 0.020337392 -0.08369248 -0.120189115 0.035181046 0.0464121 -0.030069932 0.02795887
0.02087011 0.1561602 -0.06849816 -0.108458705 0.026837222 -0.069328 -0.06896033 0.00051731133
0.06837709 -0.0069689304 -0.050818775 0.03685399 0.11617784 -0.09708386 -0.070535466 0.008316971
0.03294467 -0.066402085 -0.07339997 0.06829355 0.054616433 -0.06082756 -0.015414795 0.09285649

lstm.bias_hh_l0 f4 [512]
00000000: 5b34 d6bd 146d eb3c 83a7 00bd baa2 893c
00000010: 98f9 1abd 98d5 423c 349e e5bd dc36 58bd
00000020: 0b74 1d3d 7540 bfbd da28 3f3d faf2 0cbc
00000030: 0ff0 983d 97fc a9bb f13a bf3b 8dd2 4a3b
00000040: 7beb 1d3c 3d9b 13bd 748c fbbd 8a87 5ebd
00000050: f743 6ebd 5661 2dbc 6ef9 96bd aa54 433d
00000060: c994 043d 0740 26bd d654 ea3d 5f9d 38bd
00000070: 80bf 5ebc a764 3a3d de82 093c eba1 8abd
00000080: dc25 e1bd 9944 cebd 0029 53bd 95d6 93bc
00000090: aa95 42bd f2ca cd3d ee0a 06bc ba96 91bd
000000a0: 463c 4abc dd89 0f3e 926b b43d 3bc5 9cbd
000000b0: c5fc ff3b e760 1a3d ec52 85bd 5e0b ca3d
000000c0: 884f d5bd a8ff 9e3d daf4 673d 1156 20bd
000000d0: d0f9 df3c 0075 a63c 0783 27bc 9197 8cbd
000000e0: f3e2 0ebc d2e2 84bd 05d3 85bd 4027 6ebd
000000f0: dab3 203d 0475 80bd b503 27bc 49d7 923b
00000100: 60d0 fdbd 8774 bf3c a81c 693c 21b9 c0bc
00000110: e2e9 0abb e733 a03d 1d7b c6bd 1790 d23d
00000120: 142f 823c be0e bcba dd8d 4a3d 5c1b 0d3e
00000130: 0b9a 8abb 0dec ed3d c8b4 d3bd 21b2 4cbd
00000140: 009d 40bc d096 b8bd 4c7e 86bd 849a 5dbd
00000150: 2e61 f0bd 5165 933d dd9c c83c 8106 733c
00000160: f53c c73b d7c4 72bd 89c2 a33d 3638 21bc
00000170: f52a 2fbc b628 073c 33d8 063d c2f8 80bb
00000180: a27a cd3c 55f5 603d 0fc8 3d3d d734 90bd
00000190: 9c12 b7bc 279b 393d f8e4 463c 458a 073d
000001a0: 7c25 96bc 92b0 6b3d df81 1c3e f51d 3bbd
000001b0: 1e2d 6a3c b519 a2bd 4403 1ebd 0081 f23b
000001c0: df18 b53d b16a 66bd 5abe ec3d 3c0f 643c
000001d0: c21c 24bd 67bd ddbc e618 e23c 1fa0 ed3c
000001e0: 6caf 91bc 7128 45bb f285 04be 1732 873d
000001f0: 1932 a03d cb06 63bd 80b9 cfbd 6552 81bd
00000200: 5b69 88bd 6803 833d 8f88 cdbd 0153 113e
00000210: e7fb 9abd 7f50 06bd 1643 dbbd 20bb bbbb
00000220: 5b21 383b ddd3 20bd 0980 81bd 8aec 9a3d
00000230: 8d1b bfbc 7238 03bd 89b2 c63c 3185 003e
00000240: d8bf 97bd b3d6 0b3d b98c 9d3d bcfd bdbc
00000250: 4593 3cbc c940 9ebc 7b96 e7bc 6899 333c
00000260: bf26 e0bd 95ea 0d3d dc60 183e 31d6 a6bd
00000270: 6a04 4e3c 2c2f dbbc 7c1d 09be 8bd4 bc3d
00000280: 3db5 463d 942c 37bd 7b9e 883d ad2b c8bd
00000290: 8411 7c3d 2e4e 9c3d 3247 033d 4253 31bd
000002a0: 1955 a6bd c7c8 1b3b 2f36 2cbd 1a0e 00be
000002b0: 3942 8e3a 3536 dfb9 04db 97bc 3286 d73d
000002c0: 73f6 d63d 03d0 2bbd d9ca a33d 094c 0b3d
000002d0: 850e ddbc 59b0 bdbc 4f13 11bd 6b01 df3d
000002e0: 120e 24be 9b7d a83c cd8e 6fbc 93c1 4fbd
000002f0: 6bcc 76bd 0b20 75bd fe87 483d ae75 36bd
00000300: dd54 7c3a 095a 8dbd 422c a23c cfd1 30bc
00000310: cb4f 7bbd dd8a 07bd fa72 823c 2bfd a43d
00000320: 5016 21be 7a92 933d d231 9abd b516 a93d
00000330: 0ea2 8bbd 9870 99bc fcb0 333e 9843 e43b
00000340: 1736 9f3d 0910 183c 90c3 bb3d e53c 8abd
00000350: 4bdf 92ba 1611 243d 4df5 6fbd 3650 023e
00000360: 16ec bdbd 1f82 003d aa13 3ebd 9122 603d
00000370: aa2a a3bc 1b4d d3bd d1cf 573d f781 a2bd
00000380: 577b a4bc 9fd4 d13d 46e5 b3bd 8807 6dbd
00000390: 5077 bd3c f33c 123d ee53 263d 1d70 4cbd
000003a0: 617d fd3c 6bcd 20bc 11d2 783c ae05 73bd
000003b0: e053 4dbd 56a3 c93d f332 2b3d 8b82 db3c
000003c0: f6eb 753d 0918 003d c5c6 bb3d cd08 d73d
000003d0: 0b3d 4038 a2cb 21bd e3b7 293c a3d7 163d
000003e0: 6f03 ce3c 0d23 9e3d 111a 41bd bdfd b33d
000003f0: c9b1 553d f55b afbc 7b14 a6bc 494b 25bd
-0.10459205 0.028738536 -0.03140975 0.016801227 -0.037835687 0.011891745 -0.112118155 -0.052786693
0.038440745 -0.09338466 0.04666982 -0.008602852 0.074676625 -0.0051875818 0.005835884 0.0030948252
0.009638662 -0.03603672 -0.12282649 -0.05432848 -0.058170285 -0.010582289 -0.07371794 0.047688164
0.032368455 -0.040588405 0.114419624 -0.045071956 -0.013595462 0.045506146 0.008393018 -0.06769165
-0.10993549 -0.10071678 -0.051552773 -0.018046657 -0.047506012 0.10048474 -0.008181317 -0.07108827
-0.012343472 0.14017434 0.0880958 -0.07654806 0.007812115 0.03769007 -0.06509957 0.09865449
-0.1041556 0.07763606 0.056629993 -0.03914458 0.0273408 0.020319462 -0.01022411 -0.068648465
-0.008721101 -0.06488575 -0.065343894 -0.0581429 0.03923402 -0.06272319 -0.010193755 0.0044812304
-0.1239326 0.023370994 0.014228024 -0.023525776 -0.0021196534 0.078223996 -0.09691451 0.10281389
0.01589159 -0.0014347655 0.049451698 0.13779968 -0.004229789 0.11617289 -0.10337216 -0.049974564
-0.011756182 -0.0901314 -0.06567058 -0.054102436 -0.117372856 0.07197059 0.02448886 0.014833094
0.0060802647 -0.059269752 0.07996089 -0.009840062 -0.010691394 0.008249452 0.032921027 -0.0039359042
0.02508289 0.054921467 0.04633337 -0.070413284 -0.02234774 0.04531398 0.012139551 0.03309085
-0.01832842 0.057541437 0.15283917 -0.045682866 0.014292983 -0.079150595 -0.038577333 0.007400632
0.088426344 -0.056254093 0.11559744 0.013919648 -0.040066488 -0.027067853 0.027599763 0.029007016
-0.017783843 -0.003008392 -0.12941721 0.06601351 0.07822055 -0.0554264 -0.10142803 -0.06314544
-0.0666072 0.06397134 -0.10035812 0.1419182 -0.07567578 -0.03279161 -0.10706155 -0.005729094
0.0028096053 -0.03926455 -0.06323249 0.075646475 -0.023328567 -0.032036252 0.024255054 0.12550808
-0.07409638 0.0341403 0.07692856 -0.023192279 -0.011509721 -0.019318001 -0.028269997 0.010961868
-0.1094489 0.034647543 0.14880699 -0.081463225 0.012574295 -0.026755892 -0.13390154 0.09220227
0.048512686 -0.044720247 0.06670853 -0.097739555 0.06154014 0.07632099 0.03205032 -0.04329229
-0.081217 0.0023770796 -0.04204386 -0.1250538 0.0010853476 -0.00042574262 -0.018537052 0.105236426
0.10496225 -0.041946422 0.079976745 0.03400806 -0.026984463 -0.023155378 -0.035418805 0.10888942
-0.16020992 0.020567706 -0.014621449 -0.050721716 -0.060253542 -0.05984501 0.048957817 -0.04454582
0.0009625683 -0.069019385 0.019796494 -0.01079221 -0.061355393 -0.033091415 0.015923966 0.080561005
-0.15731168 0.072056726 -0.07529034 0.08256284 -0.06818019 -0.018730447 0.17547983 0.0069660656
0.07773989 0.009281167 0.0916816 -0.06749896 -0.0011205463 0.040055357 -0.058583546 0.1272591
-0.092735454 0.031374093 -0.04640547 0.054720465 -0.019917805 -0.10317441 0.052688424 -0.07934945
-0.020078344 0.102456324 -0.08783965 -0.05786851 0.023128182 0.035702657 0.040607385 -0.049911607
0.030943574 -0.0098146 0.0151868025 -0.05933159 -0.050128818 0.09845607 0.041796636 0.026795646
0.060039483 0.03127292 0.09168772 0.104997255 4.5833218e-05 -0.03950084 0.010358783 0.03682674
0.025148122 0.07721529 -0.047144 0.08788631 0.052171502 -0.021406153 -0.020273438 -0.040355

fc.weight f4 [3, 128]
00000000: ca37 01bd 2a36 01bb abe2 bebc e3bf f7bc
00000010: 6006 90bb 0087 debc 8424 debc 2bfa d23c
00000020: e947 4d3c 41f4 483d 3647 783d c9ca 1b3c
00000030: 55d7 883d 269c 07ba 214a 173d 8dbd 323c
00000040: 50ad 603c e930 05bc 897e 58bc 916b 833c
00000050: 8182 8d3b 0c03 45bc 0e48 b03b 14e0 34bd
00000060: de4d adbc 84ce cb3b 085e 7b3c 841d fa3b
00000070: 8d55 2e3c 95e0 2abd 97e2 5f3d d650 aebb
00000080: e3a1 d93c af6d f4ba 084a 713d d27b ca3b
00000090: d829 bc3c d2cd 9b3c f359 b5bc 3b6c 753d
000000a0: 961e 213d 8dba ad3c bade 973b 695b 7b3c
000000b0: 7ead d43c f402 c83c 4ade 473d 11d0 cf3c
000000c0: a320 97bd 5089 b4bb 9f18 66bc 85f4 673c
000000d0: c727 b83d 8e45 b8ba badb a6bc 054d f5bc
000000e0: edf4 e4bc faae 31bc 28c9 c53a 5811 883c
000000f0: 38c0 b5bb 0799 31bc 486a 343d d11d e53c
00000100: 7bb2 65bc 31fe 88bc 2f10 9cbc 8ae2 b4bc
00000110: 1beb 2a3c 74c5 c33b 137e 8fbc e888 c6bc
00000120: 84bb 14ba 2bcd 253d 239f 523d f854 a23c
00000130: 8b38 c6bc b640 01bd 6bcb 1d3d 9c5a 72bc
00000140: 06f4 31bc fae5 cdbc 0871 cbbc ed60 d4bb
00000150: 0a26 fbbb 23eb 003d e687 2c3b 1fb3 2fbd
00000160: 0e6f da3b 1723 0139 7e1e e6b8 4143 87bc
00000170: 57a8 80bc a4b3 013d 70d8 93bc 3fb9 a83c
00000180: f2ba 01bd 12c7 e43c ade5 473a 424e d3bc
00000190: 290e 873c 2643 5abc 1b19 89bc 5291 1fbd
000001a0: e96b a13c 8cfd 0d3d 86f5 84bc 3416 273d
000001b0: 83d9 3639 73cb 0fbc cdc9 883b 61b2 7c3b
000001c0: 6ccc aa3b faed 3fbd 0ff7 4bbc 7f90 05bc
000001d0: 9dbf 0abc 0e1e 383c c1a8 07ba 6abd 553a
000001e0: bd3d 973d 93c4 22bd bc2b 2bbd 42c0 f93c
000001f0: 122f 81bb 75d2 87bc c5b1 e9bb b9a5 133c
00000200: 9d4a c93c c447 02bd 150d 15ba 285d 293c
00000210: 0ce7 4fbb 8e22 d5b9 b8f2 973c 5284 44bd
00000220: efea 46bb 7526 09bd e583 4bbd 3f79 a4bc
00000230: 0c29 afbd 2431 923c b726 0ebd 50d6 a2bb
00000240: 7009 41bd b9a0 2c3b 4325 0d3d e71f 1b3a
00000250: 3f57 2dbc f3c8 57bb 32e2 b8bc 34b6 8e3d
00000260: 9d73 f839 57c2 ab3b 5bc8 d0bc 4420 03bd
00000270: a5bf c5bb df6a 303d b4e9 21bd 3ebc c93c
00000280: 8b5b ecbc ae57 143d 3c87 94bd ebd7 773c
00000290: a0cb 93bc dd61 3dbc 52e5 523a e1d8 19bc
000002a0: 186d f8bc 41a4 17bd 04ab 1fbd ec79 47bc
000002b0: c1ff 5fbc 6e42 acbc f214 4cbd d0eb 0bbc
000002c0: 521a a43d 1920 bdbc 8102 bf3c af6c 50bc
000002d0: 7e4d a5bd d48b ec3c 6132 8d3c e05e d93c
000002e0: e66c 943c d50e 103d f7fe b43b 0826 8dbc
000002f0: a837 8f3c 78c2 d83c 89c5 22bd acab cc3c
00000300: d456 a6ba 1dca f6bb 1f94 1b3d 17ba cb3b
00000310: 3145 6dbc 5d66 0fbc addd 223d 1870 223d
00000320: 42aa 1b3c 0022 cebc a24b f7bc b51e ddba
00000330: e2b2 ab3c 3cb4 b83c 8e6c 51bd 09af 8a3c
00000340: 872d 183d 7a7d f23c 7003 3b3c 7e83 be3c
00000350: 0510 d83c 4798 96bd 83d3 fbbc 2ad0 0f3d
00000360: 10fb 90bb 83c2 c83c c601 cbbb e24a e23a
00000370: 67fc 783c 4fff 41bc 223d 303d f128 c7bb
00000380: b16b a53b 5389 00bd 65c5 f238 ebb3 54bc
00000390: 9bfa e4bb b8a6 3ebd 3bb8 243c 4654 8a3d
000003a0: 1686 c4bc ce18 c5bc b92c be3c 3e30 9abc
000003b0: c08b 333c 21a1 e53b d95e 653c b4fc 90bb
000003c0: 9ff8 9bbb 021f 0dba af19 babb f327 bc3c
000003d0: 181f a73b 8025 8cba ec74 7cbb 57da fd3c
000003e0: 3509 30bd 8133 6fbc a865 113d 3ad2 81bc
000003f0: e6a9 8c3b acf9 173d 713e d33c 9b23 8f3c
-0.031547345 -0.0019716122 -0.023301443 -0.030242866 -0.004395291 -0.027163982 -0.027117021 0.025754055
0.012529352 0.049061064 0.060614787 0.009508797 0.06681696 -0.0005173109 0.03693593 0.01090945
0.013713196 -0.008129337 -0.013213762 0.016042503 0.004318536 -0.012024652 0.0053796833 -0.04415901
-0.021155294 0.006219687 0.015342243 0.007632913 0.010640514 -0.041718084 0.054659452 -0.005319695
0.026566451 -0.0018648411 0.058908492 0.0061793113 0.022969171 0.019019041 -0.022137618 0.05991767
0.03933581 0.021207118 0.0046347054 0.015341618 0.025961634 0.02441547 0.048795976 0.025367768
-0.07379272 -0.005509533 -0.014043956 0.014157419 0.08991962 -0.0014058815 -0.020368446 -0.029943952
-0.027948821 -0.01084494 0.0015089856 0.016609833 -0.005546596 -0.010839707 0.04404667 0.02796832
-0.014019604 -0.01672277 -0.019050686 -0.022080678 0.01043203 0.005974466 -0.017516172 -0.024235204
-0.0005673694 0.040478867 0.051421296 0.019815907 -0.024196884 -0.031555854 0.038524073 -0.014792111
-0.010861402 -0.025134075 -0.024834171 -0.006481281 -0.0076644467 0.031474244 0.002632612 -0.042895433
0.006666071 0.0001231547 -0.00010972934 -0.016511561 -0.01570527 0.03166546 -0.018047541 0.020596145
-0.031672426 0.027926955 0.0007625472 -0.025794152 0.016486244 -0.0133216735 -0.016735604 -0.038956948
0.019704776 0.03466563 -0.016230356 0.04079266 0.00017437902 -0.008776533 0.004174447 0.003855847
0.0052123573 -0.04685781 -0.01244904 -0.008152126 -0.008468536 0.011237634 -0.00051749876 0.000815353
0.073848225 -0.03973825 -0.041789755 0.030487183 -0.003942379 -0.016579846 -0.0071317875 0.009011679
0.024571711 -0.031806722 -0.00056858483 0.010337152 -0.0031723408 -0.0004065227 0.018548355 -0.047977753
-0.0030352434 -0.03348394 -0.04968633 -0.020077346 -0.08552751 0.017845698 -0.03470489 -0.0049693957
-0.04712814 0.0026340915 0.034459364 0.00059175346 -0.010579883 -0.0032926172 -0.022568796 0.06968346
0.00047388385 0.005241673 -0.025486162 -0.032013193 -0.0060348087 0.04307067 -0.039529517 0.024625894
-0.028852245 0.03621643 -0.072523564 0.015127162 -0.018041432 -0.011558977 0.00080450356 -0.009390087
-0.030325457 -0.03702188 -0.038981453 -0.0121750645 -0.013671816 -0.02102777 -0.049824663 -0.008540109
0.08012833 -0.023086594 0.023316624 -0.012721225 -0.08071421 0.028875269 0.017235937 0.026534498
0.018118333 0.035170395 0.0055235582 -0.017230049 0.017482594 0.026459917 -0.039739165 0.024984203
-0.0012690672 -0.007531418 0.037983056 0.006217252 -0.014481829 -0.008752433 0.039762188 0.039657682
0.009501042 -0.025162697 -0.030187432 -0.0016870113 0.020959321 0.02254688 -0.051128916 0.016929166
0.037152793 0.029600848 0.011414394 0.02325606 0.026374826 -0.07353263 -0.030740505 0.03511063
-0.00442446 0.024506813 -0.00619528 0.0017264748 0.015196896 -0.0118406555 0.04302705 -0.0060778786
0.005048238 -0.031380963 0.00011576227 -0.012982349 -0.0069878823 -0.046545714 0.01005369 0.06754355
-0.023989718 -0.02405968 0.023214685 -0.018821832 0.010958612 0.0070077335 0.013999664 -0.004424656
-0.0047598626 -0.00053833437 -0.0056793313 0.022968268 0.005100142 -0.0010692328 -0.003852184 0.030987902
-0.04297753 -0.014599682 0.035497338 -0.015847314 0.0042927144 0.03710334 0.02578661 0.017473033

fc.bias f4 [3]
00000000: 6bdc 373e 491c 6dbd 410d c83d
0.17955177 -0.057888303 0.09768153
